
Configuration name: TCN-44k
Model name: TCN-44k_50_8_0.001_20230706-181507
Receptive field: 44445 samples or 2777.8 ms
Number of parameters: 76300
==========================================================================================
Layer (type:depth-idx)                   Output Shape              Param #
==========================================================================================
TCN                                      [8, 1, 32000]             --
├─ModuleList: 1-1                        --                        --
│    └─TCNBlock: 2-1                     [8, 64, 32000]            --
│    │    └─Conv1d: 3-1                  [8, 64, 32000]            384
│    │    └─FiLM: 3-2                    [8, 64, 32000]            384
│    │    └─PReLU: 3-3                   [8, 64, 32000]            1
│    │    └─Conv1d: 3-4                  [8, 64, 32000]            64
│    └─TCNBlock: 2-2                     [8, 64, 32000]            --
│    │    └─Conv1d: 3-5                  [8, 64, 32000]            20,544
│    │    └─FiLM: 3-6                    [8, 64, 32000]            384
│    │    └─PReLU: 3-7                   [8, 64, 32000]            1
│    │    └─Conv1d: 3-8                  [8, 64, 32000]            4,096
│    └─TCNBlock: 2-3                     [8, 64, 32000]            --
│    │    └─Conv1d: 3-9                  [8, 64, 32000]            20,544
│    │    └─FiLM: 3-10                   [8, 64, 32000]            384
│    │    └─PReLU: 3-11                  [8, 64, 32000]            1
│    │    └─Conv1d: 3-12                 [8, 64, 32000]            4,096
│    └─TCNBlock: 2-4                     [8, 64, 32000]            --
│    │    └─Conv1d: 3-13                 [8, 64, 32000]            20,544
│    │    └─FiLM: 3-14                   [8, 64, 32000]            384
│    │    └─PReLU: 3-15                  [8, 64, 32000]            1
│    │    └─Conv1d: 3-16                 [8, 64, 32000]            4,096
│    └─TCNBlock: 2-5                     [8, 1, 32000]             --
│    │    └─Conv1d: 3-17                 [8, 1, 32000]             321
│    │    └─FiLM: 3-18                   [8, 1, 32000]             6
│    │    └─PReLU: 3-19                  [8, 1, 32000]             1
│    │    └─Conv1d: 3-20                 [8, 1, 32000]             64
==========================================================================================
Total params: 76,300
Trainable params: 76,300
Non-trainable params: 0
Total mult-adds (G): 19.14
==========================================================================================
Input size (MB): 1.02
Forward/backward pass size (MB): 1579.01
Params size (MB): 0.31
Estimated Total Size (MB): 1580.34
==========================================================================================

Configuration name: BiLSTM-8
Model name: BiLSTM-8_100_8_0.001_20230707-222911

Number of parameters: 729729
==========================================================================================
Layer (type:depth-idx)                   Output Shape              Param #
==========================================================================================
BiLSTM                                   [8, 1, 32000]             --
├─LSTM: 1-1                              [32000, 8, 128]           729,600
├─Linear: 1-2                            [32000, 8, 1]             129
==========================================================================================
Total params: 729,729
Trainable params: 729,729
Non-trainable params: 0
Total mult-adds (G): 186.78
==========================================================================================
Input size (MB): 1.02
Forward/backward pass size (MB): 264.19
Params size (MB): 2.92
Estimated Total Size (MB): 268.14
==========================================================================================

Configuration name: LSTM-64-2
Model name: LSTM-64-2_100_8_0.001_20230707-213244

Number of parameters: 50497
==========================================================================================
Layer (type:depth-idx)                   Output Shape              Param #
==========================================================================================
LSTM                                     [8, 1, 32000]             --
├─LSTM: 1-1                              [32000, 8, 64]            50,432
├─Linear: 1-2                            [32000, 8, 1]             65
├─Tanh: 1-3                              [32000, 8, 1]             --
==========================================================================================
Total params: 50,497
Trainable params: 50,497
Non-trainable params: 0
Total mult-adds (G): 12.91
==========================================================================================
Input size (MB): 1.02
Forward/backward pass size (MB): 133.12
Params size (MB): 0.20
Estimated Total Size (MB): 134.35
==========================================================================================

Configuration name: BiLSTM
Model name: BiLSTM_100_8_0.001_20230707-221849

Number of parameters: 133761
==========================================================================================
Layer (type:depth-idx)                   Output Shape              Param #
==========================================================================================
BiLSTM                                   [8, 1, 32000]             --
├─LSTM: 1-1                              [32000, 8, 128]           133,632
├─Linear: 1-2                            [32000, 8, 1]             129
==========================================================================================
Total params: 133,761
Trainable params: 133,761
Non-trainable params: 0
Total mult-adds (G): 34.21
==========================================================================================
Input size (MB): 1.02
Forward/backward pass size (MB): 264.19
Params size (MB): 0.54
Estimated Total Size (MB): 265.75
==========================================================================================

Configuration name: TCN-44k
Model name: TCN-44k_250_8_0.001_20230707-120535
Receptive field: 44445 samples or 2777.8 ms
Number of parameters: 76300
==========================================================================================
Layer (type:depth-idx)                   Output Shape              Param #
==========================================================================================
TCN                                      [8, 1, 32000]             --
├─ModuleList: 1-1                        --                        --
│    └─TCNBlock: 2-1                     [8, 64, 32000]            --
│    │    └─Conv1d: 3-1                  [8, 64, 32000]            384
│    │    └─FiLM: 3-2                    [8, 64, 32000]            384
│    │    └─PReLU: 3-3                   [8, 64, 32000]            1
│    │    └─Conv1d: 3-4                  [8, 64, 32000]            64
│    └─TCNBlock: 2-2                     [8, 64, 32000]            --
│    │    └─Conv1d: 3-5                  [8, 64, 32000]            20,544
│    │    └─FiLM: 3-6                    [8, 64, 32000]            384
│    │    └─PReLU: 3-7                   [8, 64, 32000]            1
│    │    └─Conv1d: 3-8                  [8, 64, 32000]            4,096
│    └─TCNBlock: 2-3                     [8, 64, 32000]            --
│    │    └─Conv1d: 3-9                  [8, 64, 32000]            20,544
│    │    └─FiLM: 3-10                   [8, 64, 32000]            384
│    │    └─PReLU: 3-11                  [8, 64, 32000]            1
│    │    └─Conv1d: 3-12                 [8, 64, 32000]            4,096
│    └─TCNBlock: 2-4                     [8, 64, 32000]            --
│    │    └─Conv1d: 3-13                 [8, 64, 32000]            20,544
│    │    └─FiLM: 3-14                   [8, 64, 32000]            384
│    │    └─PReLU: 3-15                  [8, 64, 32000]            1
│    │    └─Conv1d: 3-16                 [8, 64, 32000]            4,096
│    └─TCNBlock: 2-5                     [8, 1, 32000]             --
│    │    └─Conv1d: 3-17                 [8, 1, 32000]             321
│    │    └─FiLM: 3-18                   [8, 1, 32000]             6
│    │    └─PReLU: 3-19                  [8, 1, 32000]             1
│    │    └─Conv1d: 3-20                 [8, 1, 32000]             64
==========================================================================================
Total params: 76,300
Trainable params: 76,300
Non-trainable params: 0
Total mult-adds (G): 19.14
==========================================================================================
Input size (MB): 1.02
Forward/backward pass size (MB): 1579.01
Params size (MB): 0.31
Estimated Total Size (MB): 1580.34
==========================================================================================

Configuration name: TCN-4k
Model name: TCN-4k_250_8_0.001_20230707-115705
Receptive field: 66667 samples or 4166.7 ms
Number of parameters: 101132
==========================================================================================
Layer (type:depth-idx)                   Output Shape              Param #
==========================================================================================
TCN                                      [8, 1, 32000]             --
├─ModuleList: 1-1                        --                        --
│    └─TCNBlock: 2-1                     [8, 64, 32000]            --
│    │    └─Conv1d: 3-1                  [8, 64, 32000]            512
│    │    └─FiLM: 3-2                    [8, 64, 32000]            384
│    │    └─PReLU: 3-3                   [8, 64, 32000]            1
│    │    └─Conv1d: 3-4                  [8, 64, 32000]            64
│    └─TCNBlock: 2-2                     [8, 64, 32000]            --
│    │    └─Conv1d: 3-5                  [8, 64, 32000]            28,736
│    │    └─FiLM: 3-6                    [8, 64, 32000]            384
│    │    └─PReLU: 3-7                   [8, 64, 32000]            1
│    │    └─Conv1d: 3-8                  [8, 64, 32000]            4,096
│    └─TCNBlock: 2-3                     [8, 64, 32000]            --
│    │    └─Conv1d: 3-9                  [8, 64, 32000]            28,736
│    │    └─FiLM: 3-10                   [8, 64, 32000]            384
│    │    └─PReLU: 3-11                  [8, 64, 32000]            1
│    │    └─Conv1d: 3-12                 [8, 64, 32000]            4,096
│    └─TCNBlock: 2-4                     [8, 64, 32000]            --
│    │    └─Conv1d: 3-13                 [8, 64, 32000]            28,736
│    │    └─FiLM: 3-14                   [8, 64, 32000]            384
│    │    └─PReLU: 3-15                  [8, 64, 32000]            1
│    │    └─Conv1d: 3-16                 [8, 64, 32000]            4,096
│    └─TCNBlock: 2-5                     [8, 1, 32000]             --
│    │    └─Conv1d: 3-17                 [8, 1, 32000]             449
│    │    └─FiLM: 3-18                   [8, 1, 32000]             6
│    │    └─PReLU: 3-19                  [8, 1, 32000]             1
│    │    └─Conv1d: 3-20                 [8, 1, 32000]             64
==========================================================================================
Total params: 101,132
Trainable params: 101,132
Non-trainable params: 0
Total mult-adds (G): 25.49
==========================================================================================
Input size (MB): 1.02
Forward/backward pass size (MB): 1579.01
Params size (MB): 0.40
Estimated Total Size (MB): 1580.44
…
Forward/backward pass size (MB): 67.58
Params size (MB): 0.12
Estimated Total Size (MB): 68.73
==========================================================================================

Configuration name: TCN-4k
Model name: TCN-4k_50_8_0.001_20230706-210556
Receptive field: 66667 samples or 4166.7 ms
Number of parameters: 101132
==========================================================================================
Layer (type:depth-idx)                   Output Shape              Param #
==========================================================================================
TCN                                      [8, 1, 32000]             --
├─ModuleList: 1-1                        --                        --
│    └─TCNBlock: 2-1                     [8, 64, 32000]            --
│    │    └─Conv1d: 3-1                  [8, 64, 32000]            512
│    │    └─FiLM: 3-2                    [8, 64, 32000]            384
│    │    └─PReLU: 3-3                   [8, 64, 32000]            1
│    │    └─Conv1d: 3-4                  [8, 64, 32000]            64
│    └─TCNBlock: 2-2                     [8, 64, 32000]            --
│    │    └─Conv1d: 3-5                  [8, 64, 32000]            28,736
│    │    └─FiLM: 3-6                    [8, 64, 32000]            384
│    │    └─PReLU: 3-7                   [8, 64, 32000]            1
│    │    └─Conv1d: 3-8                  [8, 64, 32000]            4,096
│    └─TCNBlock: 2-3                     [8, 64, 32000]            --
│    │    └─Conv1d: 3-9                  [8, 64, 32000]            28,736
│    │    └─FiLM: 3-10                   [8, 64, 32000]            384
│    │    └─PReLU: 3-11                  [8, 64, 32000]            1
│    │    └─Conv1d: 3-12                 [8, 64, 32000]            4,096
│    └─TCNBlock: 2-4                     [8, 64, 32000]            --
│    │    └─Conv1d: 3-13                 [8, 64, 32000]            28,736
│    │    └─FiLM: 3-14                   [8, 64, 32000]            384
│    │    └─PReLU: 3-15                  [8, 64, 32000]            1
│    │    └─Conv1d: 3-16                 [8, 64, 32000]            4,096
│    └─TCNBlock: 2-5                     [8, 1, 32000]             --
│    │    └─Conv1d: 3-17                 [8, 1, 32000]             449
│    │    └─FiLM: 3-18                   [8, 1, 32000]             6
│    │    └─PReLU: 3-19                  [8, 1, 32000]             1
│    │    └─Conv1d: 3-20                 [8, 1, 32000]             64
==========================================================================================
Total params: 101,132
Trainable params: 101,132
Non-trainable params: 0
Total mult-adds (G): 25.49
==========================================================================================
Input size (MB): 1.02
Forward/backward pass size (MB): 1579.01
Params size (MB): 0.40
Estimated Total Size (MB): 1580.44
==========================================================================================

Configuration name: LSTM-4
Model name: LSTM-4_100_8_0.001_20230707-193006

Number of parameters: 29857
==========================================================================================
Layer (type:depth-idx)                   Output Shape              Param #
==========================================================================================
LSTM                                     [8, 1, 32000]             --
├─LSTM: 1-1                              [32000, 8, 32]            29,824
├─Linear: 1-2                            [32000, 8, 1]             33
├─Tanh: 1-3                              [32000, 8, 1]             --
==========================================================================================
Total params: 29,857
Trainable params: 29,857
Non-trainable params: 0
Total mult-adds (G): 7.64
==========================================================================================
Input size (MB): 1.02
Forward/backward pass size (MB): 67.58
Params size (MB): 0.12
Estimated Total Size (MB): 68.73
==========================================================================================

Configuration name: TCN-2k
Model name: TCN-2k_250_8_0.001_20230707-112847
Receptive field: 37449 samples or 2340.6 ms
Number of parameters: 32268
==========================================================================================
Layer (type:depth-idx)                   Output Shape              Param #
==========================================================================================
TCN                                      [8, 1, 32000]             --
├─ModuleList: 1-1                        --                        --
│    └─TCNBlock: 2-1                     [8, 32, 32000]            --
│    │    └─Conv1d: 3-1                  [8, 32, 32000]            320
│    │    └─FiLM: 3-2                    [8, 32, 32000]            192
│    │    └─PReLU: 3-3                   [8, 32, 32000]            1
│    │    └─Conv1d: 3-4                  [8, 32, 32000]            32
│    └─TCNBlock: 2-2                     [8, 32, 32000]            --
│    │    └─Conv1d: 3-5                  [8, 32, 32000]            9,248
│    │    └─FiLM: 3-6                    [8, 32, 32000]            192
│    │    └─PReLU: 3-7                   [8, 32, 32000]            1
│    │    └─Conv1d: 3-8                  [8, 32, 32000]            1,024
│    └─TCNBlock: 2-3                     [8, 32, 32000]            --
│    │    └─Conv1d: 3-9                  [8, 32, 32000]            9,248
│    │    └─FiLM: 3-10                   [8, 32, 32000]            192
│    │    └─PReLU: 3-11                  [8, 32, 32000]            1
│    │    └─Conv1d: 3-12                 [8, 32, 32000]            1,024
│    └─TCNBlock: 2-4                     [8, 32, 32000]            --
│    │    └─Conv1d: 3-13                 [8, 32, 32000]            9,248
│    │    └─FiLM: 3-14                   [8, 32, 32000]            192
│    │    └─PReLU: 3-15                  [8, 32, 32000]            1
│    │    └─Conv1d: 3-16                 [8, 32, 32000]            1,024
│    └─TCNBlock: 2-5                     [8, 1, 32000]             --
│    │    └─Conv1d: 3-17                 [8, 1, 32000]             289
│    │    └─FiLM: 3-18                   [8, 1, 32000]             6
│    │    └─PReLU: 3-19                  [8, 1, 32000]             1
│    │    └─Conv1d: 3-20                 [8, 1, 32000]             32
==========================================================================================
Total params: 32,268
Trainable params: 32,268
Non-trainable params: 0
Total mult-adds (G): 8.06
==========================================================================================
Input size (MB): 1.02
Forward/backward pass size (MB): 792.58
Params size (MB): 0.13
Estimated Total Size (MB): 793.73
==========================================================================================

Configuration name: TCN-1700
Model name: TCN-1700_50_8_0.001_20230707-002137
Receptive field: 28087 samples or 1755.4 ms
Number of parameters: 25996
==========================================================================================
Layer (type:depth-idx)                   Output Shape              Param #
==========================================================================================
TCN                                      [8, 1, 32000]             --
├─ModuleList: 1-1                        --                        --
│    └─TCNBlock: 2-1                     [8, 32, 32000]            --
│    │    └─Conv1d: 3-1                  [8, 32, 32000]            256
│    │    └─FiLM: 3-2                    [8, 32, 32000]            192
│    │    └─PReLU: 3-3                   [8, 32, 32000]            1
│    │    └─Conv1d: 3-4                  [8, 32, 32000]            32
│    └─TCNBlock: 2-2                     [8, 32, 32000]            --
│    │    └─Conv1d: 3-5                  [8, 32, 32000]            7,200
│    │    └─FiLM: 3-6                    [8, 32, 32000]            192
│    │    └─PReLU: 3-7                   [8, 32, 32000]            1
│    │    └─Conv1d: 3-8                  [8, 32, 32000]            1,024
│    └─TCNBlock: 2-3                     [8, 32, 32000]            --
│    │    └─Conv1d: 3-9                  [8, 32, 32000]            7,200
│    │    └─FiLM: 3-10                   [8, 32, 32000]            192
│    │    └─PReLU: 3-11                  [8, 32, 32000]            1
│    │    └─Conv1d: 3-12                 [8, 32, 32000]            1,024
│    └─TCNBlock: 2-4                     [8, 32, 32000]            --
│    │    └─Conv1d: 3-13                 [8, 32, 32000]            7,200
│    │    └─FiLM: 3-14                   [8, 32, 32000]            192
│    │    └─PReLU: 3-15                  [8, 32, 32000]            1
│    │    └─Conv1d: 3-16                 [8, 32, 32000]            1,024
│    └─TCNBlock: 2-5                     [8, 1, 32000]             --
│    │    └─Conv1d: 3-17                 [8, 1, 32000]             225
│    │    └─FiLM: 3-18                   [8, 1, 32000]             6
│    │    └─PReLU: 3-19                  [8, 1, 32000]             1
│    │    └─Conv1d: 3-20                 [8, 1, 32000]             32
==========================================================================================
Total params: 25,996
Trainable params: 25,996
Non-trainable params: 0
Total mult-adds (G): 6.46
==========================================================================================
Input size (MB): 1.02
Forward/backward pass size (MB): 792.58
Params size (MB): 0.10
Estimated Total Size (MB): 793.71
==========================================================================================

Configuration name: WN-150
Model name: WN-150_50_8_0.001_20230706-151153
Receptive field: 150 samples or 9.4 ms
Number of parameters: 57633
==========================================================================================
Layer (type:depth-idx)                   Output Shape              Param #
==========================================================================================
WaveNet                                  [8, 1, 32000]             --
├─CausalConv1d: 1-1                      [8, 16, 32000]            32
├─ModuleList: 1-40                       --                        (recursive)
│    └─CausalConv1d: 2-1                 [8, 32, 32000]            2,592
├─ModuleList: 1-41                       --                        (recursive)
│    └─CausalConv1d: 2-2                 [8, 16, 32000]            272
├─ModuleList: 1-40                       --                        (recursive)
│    └─CausalConv1d: 2-3                 [8, 32, 32000]            2,592
├─ModuleList: 1-41                       --                        (recursive)
│    └─CausalConv1d: 2-4                 [8, 16, 32000]            272
├─ModuleList: 1-40                       --                        (recursive)
│    └─CausalConv1d: 2-5                 [8, 32, 32000]            2,592
├─ModuleList: 1-41                       --                        (recursive)
│    └─CausalConv1d: 2-6                 [8, 16, 32000]            272
├─ModuleList: 1-40                       --                        (recursive)
│    └─CausalConv1d: 2-7                 [8, 32, 32000]            2,592
├─ModuleList: 1-41                       --                        (recursive)
│    └─CausalConv1d: 2-8                 [8, 16, 32000]            272
├─ModuleList: 1-40                       --                        (recursive)
│    └─CausalConv1d: 2-9                 [8, 32, 32000]            2,592
├─ModuleList: 1-41                       --                        (recursive)
│    └─CausalConv1d: 2-10                [8, 16, 32000]            272
├─ModuleList: 1-40                       --                        (recursive)
│    └─CausalConv1d: 2-11                [8, 32, 32000]            2,592
├─ModuleList: 1-41                       --                        (recursive)
│    └─CausalConv1d: 2-12                [8, 16, 32000]            272
├─ModuleList: 1-40                       --                        (recursive)
│    └─CausalConv1d: 2-13                [8, 32, 32000]            2,592
├─ModuleList: 1-41                       --                        (recursive)
│    └─CausalConv1d: 2-14                [8, 16, 32000]            272
├─ModuleList: 1-40                       --                        (recursive)
│    └─CausalConv1d: 2-15                [8, 32, 32000]            2,592
├─ModuleList: 1-41                       --                        (recursive)
│    └─CausalConv1d: 2-16                [8, 16, 32000]            272
├─ModuleList: 1-40                       --                        (recursive)
│    └─CausalConv1d: 2-17                [8, 32, 32000]            2,592
├─ModuleList: 1-41                       --                        (recursive)
│    └─CausalConv1d: 2-18                [8, 16, 32000]            272
├─ModuleList: 1-40                       --                        (recursive)
│    └─CausalConv1d: 2-19                [8, 32, 32000]            2,592
├─ModuleList: 1-41                       --                        (recursive)
│    └─CausalConv1d: 2-20                [8, 16, 32000]            272
├─ModuleList: 1-40                       --                        (recursive)
│    └─CausalConv1d: 2-21                [8, 32, 32000]            2,592
├─ModuleList: 1-41                       --                        (recursive)
│    └─CausalConv1d: 2-22                [8, 16, 32000]            272
├─ModuleList: 1-40                       --                        (recursive)
│    └─CausalConv1d: 2-23                [8, 32, 32000]            2,592
├─ModuleList: 1-41                       --                        (recursive)
│    └─CausalConv1d: 2-24                [8, 16, 32000]            272
├─ModuleList: 1-40                       --                        (recursive)
│    └─CausalConv1d: 2-25                [8, 32, 32000]            2,592
├─ModuleList: 1-41                       --                        (recursive)
│    └─CausalConv1d: 2-26                [8, 16, 32000]            272
├─ModuleList: 1-40                       --                        (recursive)
│    └─CausalConv1d: 2-27                [8, 32, 32000]            2,592
├─ModuleList: 1-41                       --                        (recursive)
│    └─CausalConv1d: 2-28                [8, 16, 32000]            272
├─ModuleList: 1-40                       --                        (recursive)
│    └─CausalConv1d: 2-29                [8, 32, 32000]            2,592
├─ModuleList: 1-41                       --                        (recursive)
│    └─CausalConv1d: 2-30                [8, 16, 32000]            272
├─ModuleList: 1-40                       --                        (recursive)
│    └─CausalConv1d: 2-31                [8, 32, 32000]            2,592
├─ModuleList: 1-41                       --                        (recursive)
│    └─CausalConv1d: 2-32                [8, 16, 32000]            272
├─ModuleList: 1-40                       --                        (recursive)
│    └─CausalConv1d: 2-33                [8, 32, 32000]            2,592
├─ModuleList: 1-41                       --                        (recursive)
│    └─CausalConv1d: 2-34                [8, 16, 32000]            272
├─ModuleList: 1-40                       --                        (recursive)
│    └─CausalConv1d: 2-35                [8, 32, 32000]            2,592
├─ModuleList: 1-41                       --                        (recursive)
│    └─CausalConv1d: 2-36                [8, 16, 32000]            272
├─ModuleList: 1-40                       --                        (recursive)
│    └─CausalConv1d: 2-37                [8, 32, 32000]            2,592
├─ModuleList: 1-41                       --                        (recursive)
│    └─CausalConv1d: 2-38                [8, 16, 32000]            272
├─ModuleList: 1-40                       --                        (recursive)
│    └─CausalConv1d: 2-39                [8, 32, 32000]            2,592
├─ModuleList: 1-41                       --                        (recursive)
│    └─CausalConv1d: 2-40                [8, 16, 32000]            272
├─Conv1d: 1-42                           [8, 1, 32000]             321
==========================================================================================
Total params: 57,633
Trainable params: 57,633
Non-trainable params: 0
Total mult-adds (G): 14.75
==========================================================================================
Input size (MB): 1.02
Forward/backward pass size (MB): 2000.90
Params size (MB): 0.23
Estimated Total Size (MB): 2002.15
…
Forward/backward pass size (MB): 1579.01
Params size (MB): 0.31
Estimated Total Size (MB): 1580.34
==========================================================================================

Configuration name: WN-1500
Model name: WN-1500_50_8_0.001_20230706-183159
Receptive field: 25575 samples or 1598.4 ms
Number of parameters: 36817
==========================================================================================
Layer (type:depth-idx)                   Output Shape              Param #
==========================================================================================
WaveNet                                  [8, 1, 32000]             --
├─CausalConv1d: 1-1                      [8, 8, 32000]             16
├─ModuleList: 1-100                      --                        (recursive)
│    └─CausalConv1d: 2-1                 [8, 16, 32000]            656
├─ModuleList: 1-101                      --                        (recursive)
│    └─CausalConv1d: 2-2                 [8, 8, 32000]             72
├─ModuleList: 1-100                      --                        (recursive)
│    └─CausalConv1d: 2-3                 [8, 16, 32000]            656
├─ModuleList: 1-101                      --                        (recursive)
│    └─CausalConv1d: 2-4                 [8, 8, 32000]             72
├─ModuleList: 1-100                      --                        (recursive)
│    └─CausalConv1d: 2-5                 [8, 16, 32000]            656
├─ModuleList: 1-101                      --                        (recursive)
│    └─CausalConv1d: 2-6                 [8, 8, 32000]             72
├─ModuleList: 1-100                      --                        (recursive)
│    └─CausalConv1d: 2-7                 [8, 16, 32000]            656
├─ModuleList: 1-101                      --                        (recursive)
│    └─CausalConv1d: 2-8                 [8, 8, 32000]             72
├─ModuleList: 1-100                      --                        (recursive)
│    └─CausalConv1d: 2-9                 [8, 16, 32000]            656
├─ModuleList: 1-101                      --                        (recursive)
│    └─CausalConv1d: 2-10                [8, 8, 32000]             72
├─ModuleList: 1-100                      --                        (recursive)
│    └─CausalConv1d: 2-11                [8, 16, 32000]            656
├─ModuleList: 1-101                      --                        (recursive)
│    └─CausalConv1d: 2-12                [8, 8, 32000]             72
├─ModuleList: 1-100                      --                        (recursive)
│    └─CausalConv1d: 2-13                [8, 16, 32000]            656
├─ModuleList: 1-101                      --                        (recursive)
│    └─CausalConv1d: 2-14                [8, 8, 32000]             72
├─ModuleList: 1-100                      --                        (recursive)
│    └─CausalConv1d: 2-15                [8, 16, 32000]            656
├─ModuleList: 1-101                      --                        (recursive)
│    └─CausalConv1d: 2-16                [8, 8, 32000]             72
├─ModuleList: 1-100                      --                        (recursive)
│    └─CausalConv1d: 2-17                [8, 16, 32000]            656
├─ModuleList: 1-101                      --                        (recursive)
│    └─CausalConv1d: 2-18                [8, 8, 32000]             72
├─ModuleList: 1-100                      --                        (recursive)
│    └─CausalConv1d: 2-19                [8, 16, 32000]            656
├─ModuleList: 1-101                      --                        (recursive)
│    └─CausalConv1d: 2-20                [8, 8, 32000]             72
├─ModuleList: 1-100                      --                        (recursive)
│    └─CausalConv1d: 2-21                [8, 16, 32000]            656
├─ModuleList: 1-101                      --                        (recursive)
│    └─CausalConv1d: 2-22                [8, 8, 32000]             72
├─ModuleList: 1-100                      --                        (recursive)
│    └─CausalConv1d: 2-23                [8, 16, 32000]            656
├─ModuleList: 1-101                      --                        (recursive)
│    └─CausalConv1d: 2-24                [8, 8, 32000]             72
├─ModuleList: 1-100                      --                        (recursive)
│    └─CausalConv1d: 2-25                [8, 16, 32000]            656
├─ModuleList: 1-101                      --                        (recursive)
│    └─CausalConv1d: 2-26                [8, 8, 32000]             72
├─ModuleList: 1-100                      --                        (recursive)
│    └─CausalConv1d: 2-27                [8, 16, 32000]            656
├─ModuleList: 1-101                      --                        (recursive)
│    └─CausalConv1d: 2-28                [8, 8, 32000]             72
├─ModuleList: 1-100                      --                        (recursive)
│    └─CausalConv1d: 2-29                [8, 16, 32000]            656
├─ModuleList: 1-101                      --                        (recursive)
│    └─CausalConv1d: 2-30                [8, 8, 32000]             72
├─ModuleList: 1-100                      --                        (recursive)
│    └─CausalConv1d: 2-31                [8, 16, 32000]            656
├─ModuleList: 1-101                      --                        (recursive)
│    └─CausalConv1d: 2-32                [8, 8, 32000]             72
├─ModuleList: 1-100                      --                        (recursive)
│    └─CausalConv1d: 2-33                [8, 16, 32000]            656
├─ModuleList: 1-101                      --                        (recursive)
│    └─CausalConv1d: 2-34                [8, 8, 32000]             72
├─ModuleList: 1-100                      --                        (recursive)
│    └─CausalConv1d: 2-35                [8, 16, 32000]            656
├─ModuleList: 1-101                      --                        (recursive)
│    └─CausalConv1d: 2-36                [8, 8, 32000]             72
├─ModuleList: 1-100                      --                        (recursive)
│    └─CausalConv1d: 2-37                [8, 16, 32000]            656
├─ModuleList: 1-101                      --                        (recursive)
│    └─CausalConv1d: 2-38                [8, 8, 32000]             72
├─ModuleList: 1-100                      --                        (recursive)
│    └─CausalConv1d: 2-39                [8, 16, 32000]            656
├─ModuleList: 1-101                      --                        (recursive)
│    └─CausalConv1d: 2-40                [8, 8, 32000]             72
├─ModuleList: 1-100                      --                        (recursive)
│    └─CausalConv1d: 2-41                [8, 16, 32000]            656
├─ModuleList: 1-101                      --                        (recursive)
│    └─CausalConv1d: 2-42                [8, 8, 32000]             72
├─ModuleList: 1-100                      --                        (recursive)
│    └─CausalConv1d: 2-43                [8, 16, 32000]            656
├─ModuleList: 1-101                      --                        (recursive)
│    └─CausalConv1d: 2-44                [8, 8, 32000]             72
├─ModuleList: 1-100                      --                        (recursive)
│    └─CausalConv1d: 2-45                [8, 16, 32000]            656
├─ModuleList: 1-101                      --                        (recursive)
│    └─CausalConv1d: 2-46                [8, 8, 32000]             72
├─ModuleList: 1-100                      --                        (recursive)
│    └─CausalConv1d: 2-47                [8, 16, 32000]            656
├─ModuleList: 1-101                      --                        (recursive)
│    └─CausalConv1d: 2-48                [8, 8, 32000]             72
├─ModuleList: 1-100                      --                        (recursive)
│    └─CausalConv1d: 2-49                [8, 16, 32000]            656
├─ModuleList: 1-101                      --                        (recursive)
│    └─CausalConv1d: 2-50                [8, 8, 32000]             72
├─ModuleList: 1-100                      --                        (recursive)
│    └─CausalConv1d: 2-51                [8, 16, 32000]            656
├─ModuleList: 1-101                      --                        (recursive)
│    └─CausalConv1d: 2-52                [8, 8, 32000]             72
├─ModuleList: 1-100                      --                        (recursive)
│    └─CausalConv1d: 2-53                [8, 16, 32000]            656
├─ModuleList: 1-101                      --                        (recursive)
│    └─CausalConv1d: 2-54                [8, 8, 32000]             72
├─ModuleList: 1-100                      --                        (recursive)
│    └─CausalConv1d: 2-55                [8, 16, 32000]            656
├─ModuleList: 1-101                      --                        (recursive)
│    └─CausalConv1d: 2-56                [8, 8, 32000]             72
├─ModuleList: 1-100                      --                        (recursive)
│    └─CausalConv1d: 2-57                [8, 16, 32000]            656
├─ModuleList: 1-101                      --                        (recursive)
│    └─CausalConv1d: 2-58                [8, 8, 32000]             72
├─ModuleList: 1-100                      --                        (recursive)
│    └─CausalConv1d: 2-59                [8, 16, 32000]            656
├─ModuleList: 1-101                      --                        (recursive)
│    └─CausalConv1d: 2-60                [8, 8, 32000]             72
├─ModuleList: 1-100                      --                        (recursive)
│    └─CausalConv1d: 2-61                [8, 16, 32000]            656
├─ModuleList: 1-101                      --                        (recursive)
│    └─CausalConv1d: 2-62                [8, 8, 32000]             72
├─ModuleList: 1-100                      --                        (recursive)
│    └─CausalConv1d: 2-63                [8, 16, 32000]            656
├─ModuleList: 1-101                      --                        (recursive)
│    └─CausalConv1d: 2-64                [8, 8, 32000]             72
├─ModuleList: 1-100                      --                        (recursive)
│    └─CausalConv1d: 2-65                [8, 16, 32000]            656
├─ModuleList: 1-101                      --                        (recursive)
│    └─CausalConv1d: 2-66                [8, 8, 32000]             72
├─ModuleList: 1-100                      --                        (recursive)
│    └─CausalConv1d: 2-67                [8, 16, 32000]            656
├─ModuleList: 1-101                      --                        (recursive)
│    └─CausalConv1d: 2-68                [8, 8, 32000]             72
├─ModuleList: 1-100                      --                        (recursive)
│    └─CausalConv1d: 2-69                [8, 16, 32000]            656
├─ModuleList: 1-101                      --                        (recursive)
│    └─CausalConv1d: 2-70                [8, 8, 32000]             72
├─ModuleList: 1-100                      --                        (recursive)
│    └─CausalConv1d: 2-71                [8, 16, 32000]            656
├─ModuleList: 1-101                      --                        (recursive)
│    └─CausalConv1d: 2-72                [8, 8, 32000]             72
├─ModuleList: 1-100                      --                        (recursive)
│    └─CausalConv1d: 2-73                [8, 16, 32000]            656
├─ModuleList: 1-101                      --                        (recursive)
│    └─CausalConv1d: 2-74                [8, 8, 32000]             72
├─ModuleList: 1-100                      --                        (recursive)
│    └─CausalConv1d: 2-75                [8, 16, 32000]            656
├─ModuleList: 1-101                      --                        (recursive)
│    └─CausalConv1d: 2-76                [8, 8, 32000]             72
├─ModuleList: 1-100                      --                        (recursive)
│    └─CausalConv1d: 2-77                [8, 16, 32000]            656
├─ModuleList: 1-101                      --                        (recursive)
│    └─CausalConv1d: 2-78                [8, 8, 32000]             72
├─ModuleList: 1-100                      --                        (recursive)
│    └─CausalConv1d: 2-79                [8, 16, 32000]            656
├─ModuleList: 1-101                      --                        (recursive)
│    └─CausalConv1d: 2-80                [8, 8, 32000]             72
├─ModuleList: 1-100                      --                        (recursive)
│    └─CausalConv1d: 2-81                [8, 16, 32000]            656
├─ModuleList: 1-101                      --                        (recursive)
│    └─CausalConv1d: 2-82                [8, 8, 32000]             72
├─ModuleList: 1-100                      --                        (recursive)
│    └─CausalConv1d: 2-83                [8, 16, 32000]            656
├─ModuleList: 1-101                      --                        (recursive)
│    └─CausalConv1d: 2-84                [8, 8, 32000]             72
├─ModuleList: 1-100                      --                        (recursive)
│    └─CausalConv1d: 2-85                [8, 16, 32000]            656
├─ModuleList: 1-101                      --                        (recursive)
│    └─CausalConv1d: 2-86                [8, 8, 32000]             72
├─ModuleList: 1-100                      --                        (recursive)
│    └─CausalConv1d: 2-87                [8, 16, 32000]            656
├─ModuleList: 1-101                      --                        (recursive)
│    └─CausalConv1d: 2-88                [8, 8, 32000]             72
├─ModuleList: 1-100                      --                        (recursive)
│    └─CausalConv1d: 2-89                [8, 16, 32000]            656
├─ModuleList: 1-101                      --                        (recursive)
│    └─CausalConv1d: 2-90                [8, 8, 32000]             72
├─ModuleList: 1-100                      --                        (recursive)
│    └─CausalConv1d: 2-91                [8, 16, 32000]            656
├─ModuleList: 1-101                      --                        (recursive)
│    └─CausalConv1d: 2-92                [8, 8, 32000]             72
├─ModuleList: 1-100                      --                        (recursive)
│    └─CausalConv1d: 2-93                [8, 16, 32000]            656
├─ModuleList: 1-101                      --                        (recursive)
│    └─CausalConv1d: 2-94                [8, 8, 32000]             72
├─ModuleList: 1-100                      --                        (recursive)
│    └─CausalConv1d: 2-95                [8, 16, 32000]            656
├─ModuleList: 1-101                      --                        (recursive)
│    └─CausalConv1d: 2-96                [8, 8, 32000]             72
├─ModuleList: 1-100                      --                        (recursive)
│    └─CausalConv1d: 2-97                [8, 16, 32000]            656
├─ModuleList: 1-101                      --                        (recursive)
│    └─CausalConv1d: 2-98                [8, 8, 32000]             72
├─ModuleList: 1-100                      --                        (recursive)
│    └─CausalConv1d: 2-99                [8, 16, 32000]            656
├─ModuleList: 1-101                      --                        (recursive)
│    └─CausalConv1d: 2-100               [8, 8, 32000]             72
├─Conv1d: 1-102                          [8, 1, 32000]             401
==========================================================================================
Total params: 36,817
Trainable params: 36,817
Non-trainable params: 0
Total mult-adds (G): 9.43
==========================================================================================
Input size (MB): 1.02
Forward/backward pass size (MB): 2476.03
Params size (MB): 0.15
Estimated Total Size (MB): 2477.20
==========================================================================================
…
Forward/backward pass size (MB): 2000.90
Params size (MB): 0.23
Estimated Total Size (MB): 2002.15
==========================================================================================

Configuration name: WN-1k
Model name: WN-1k_50_8_0.001_20230706-182812
Receptive field: 54 samples or 3.4 ms
Number of parameters: 8081
==========================================================================================
Layer (type:depth-idx)                   Output Shape              Param #
==========================================================================================
WaveNet                                  [8, 1, 32000]             --
├─CausalConv1d: 1-1                      [8, 8, 32000]             16
├─ModuleList: 1-72                       --                        (recursive)
│    └─CausalConv1d: 2-1                 [8, 16, 32000]            144
├─ModuleList: 1-73                       --                        (recursive)
│    └─CausalConv1d: 2-2                 [8, 8, 32000]             72
├─ModuleList: 1-72                       --                        (recursive)
│    └─CausalConv1d: 2-3                 [8, 16, 32000]            144
├─ModuleList: 1-73                       --                        (recursive)
│    └─CausalConv1d: 2-4                 [8, 8, 32000]             72
├─ModuleList: 1-72                       --                        (recursive)
│    └─CausalConv1d: 2-5                 [8, 16, 32000]            144
├─ModuleList: 1-73                       --                        (recursive)
│    └─CausalConv1d: 2-6                 [8, 8, 32000]             72
├─ModuleList: 1-72                       --                        (recursive)
│    └─CausalConv1d: 2-7                 [8, 16, 32000]            144
├─ModuleList: 1-73                       --                        (recursive)
│    └─CausalConv1d: 2-8                 [8, 8, 32000]             72
├─ModuleList: 1-72                       --                        (recursive)
│    └─CausalConv1d: 2-9                 [8, 16, 32000]            144
├─ModuleList: 1-73                       --                        (recursive)
│    └─CausalConv1d: 2-10                [8, 8, 32000]             72
├─ModuleList: 1-72                       --                        (recursive)
│    └─CausalConv1d: 2-11                [8, 16, 32000]            144
├─ModuleList: 1-73                       --                        (recursive)
│    └─CausalConv1d: 2-12                [8, 8, 32000]             72
├─ModuleList: 1-72                       --                        (recursive)
│    └─CausalConv1d: 2-13                [8, 16, 32000]            144
├─ModuleList: 1-73                       --                        (recursive)
│    └─CausalConv1d: 2-14                [8, 8, 32000]             72
├─ModuleList: 1-72                       --                        (recursive)
│    └─CausalConv1d: 2-15                [8, 16, 32000]            144
├─ModuleList: 1-73                       --                        (recursive)
│    └─CausalConv1d: 2-16                [8, 8, 32000]             72
├─ModuleList: 1-72                       --                        (recursive)
│    └─CausalConv1d: 2-17                [8, 16, 32000]            144
├─ModuleList: 1-73                       --                        (recursive)
│    └─CausalConv1d: 2-18                [8, 8, 32000]             72
├─ModuleList: 1-72                       --                        (recursive)
│    └─CausalConv1d: 2-19                [8, 16, 32000]            144
├─ModuleList: 1-73                       --                        (recursive)
│    └─CausalConv1d: 2-20                [8, 8, 32000]             72
├─ModuleList: 1-72                       --                        (recursive)
│    └─CausalConv1d: 2-21                [8, 16, 32000]            144
├─ModuleList: 1-73                       --                        (recursive)
│    └─CausalConv1d: 2-22                [8, 8, 32000]             72
├─ModuleList: 1-72                       --                        (recursive)
│    └─CausalConv1d: 2-23                [8, 16, 32000]            144
├─ModuleList: 1-73                       --                        (recursive)
│    └─CausalConv1d: 2-24                [8, 8, 32000]             72
├─ModuleList: 1-72                       --                        (recursive)
│    └─CausalConv1d: 2-25                [8, 16, 32000]            144
├─ModuleList: 1-73                       --                        (recursive)
│    └─CausalConv1d: 2-26                [8, 8, 32000]             72
├─ModuleList: 1-72                       --                        (recursive)
│    └─CausalConv1d: 2-27                [8, 16, 32000]            144
├─ModuleList: 1-73                       --                        (recursive)
│    └─CausalConv1d: 2-28                [8, 8, 32000]             72
├─ModuleList: 1-72                       --                        (recursive)
│    └─CausalConv1d: 2-29                [8, 16, 32000]            144
├─ModuleList: 1-73                       --                        (recursive)
│    └─CausalConv1d: 2-30                [8, 8, 32000]             72
├─ModuleList: 1-72                       --                        (recursive)
│    └─CausalConv1d: 2-31                [8, 16, 32000]            144
├─ModuleList: 1-73                       --                        (recursive)
│    └─CausalConv1d: 2-32                [8, 8, 32000]             72
├─ModuleList: 1-72                       --                        (recursive)
│    └─CausalConv1d: 2-33                [8, 16, 32000]            144
├─ModuleList: 1-73                       --                        (recursive)
│    └─CausalConv1d: 2-34                [8, 8, 32000]             72
├─ModuleList: 1-72                       --                        (recursive)
│    └─CausalConv1d: 2-35                [8, 16, 32000]            144
├─ModuleList: 1-73                       --                        (recursive)
│    └─CausalConv1d: 2-36                [8, 8, 32000]             72
├─ModuleList: 1-72                       --                        (recursive)
│    └─CausalConv1d: 2-37                [8, 16, 32000]            144
├─ModuleList: 1-73                       --                        (recursive)
│    └─CausalConv1d: 2-38                [8, 8, 32000]             72
├─ModuleList: 1-72                       --                        (recursive)
│    └─CausalConv1d: 2-39                [8, 16, 32000]            144
├─ModuleList: 1-73                       --                        (recursive)
│    └─CausalConv1d: 2-40                [8, 8, 32000]             72
├─ModuleList: 1-72                       --                        (recursive)
│    └─CausalConv1d: 2-41                [8, 16, 32000]            144
├─ModuleList: 1-73                       --                        (recursive)
│    └─CausalConv1d: 2-42                [8, 8, 32000]             72
├─ModuleList: 1-72                       --                        (recursive)
│    └─CausalConv1d: 2-43                [8, 16, 32000]            144
├─ModuleList: 1-73                       --                        (recursive)
│    └─CausalConv1d: 2-44                [8, 8, 32000]             72
├─ModuleList: 1-72                       --                        (recursive)
│    └─CausalConv1d: 2-45                [8, 16, 32000]            144
├─ModuleList: 1-73                       --                        (recursive)
│    └─CausalConv1d: 2-46                [8, 8, 32000]             72
├─ModuleList: 1-72                       --                        (recursive)
│    └─CausalConv1d: 2-47                [8, 16, 32000]            144
├─ModuleList: 1-73                       --                        (recursive)
│    └─CausalConv1d: 2-48                [8, 8, 32000]             72
├─ModuleList: 1-72                       --                        (recursive)
│    └─CausalConv1d: 2-49                [8, 16, 32000]            144
├─ModuleList: 1-73                       --                        (recursive)
│    └─CausalConv1d: 2-50                [8, 8, 32000]             72
├─ModuleList: 1-72                       --                        (recursive)
│    └─CausalConv1d: 2-51                [8, 16, 32000]            144
├─ModuleList: 1-73                       --                        (recursive)
│    └─CausalConv1d: 2-52                [8, 8, 32000]             72
├─ModuleList: 1-72                       --                        (recursive)
│    └─CausalConv1d: 2-53                [8, 16, 32000]            144
├─ModuleList: 1-73                       --                        (recursive)
│    └─CausalConv1d: 2-54                [8, 8, 32000]             72
├─ModuleList: 1-72                       --                        (recursive)
│    └─CausalConv1d: 2-55                [8, 16, 32000]            144
├─ModuleList: 1-73                       --                        (recursive)
│    └─CausalConv1d: 2-56                [8, 8, 32000]             72
├─ModuleList: 1-72                       --                        (recursive)
│    └─CausalConv1d: 2-57                [8, 16, 32000]            144
├─ModuleList: 1-73                       --                        (recursive)
│    └─CausalConv1d: 2-58                [8, 8, 32000]             72
├─ModuleList: 1-72                       --                        (recursive)
│    └─CausalConv1d: 2-59                [8, 16, 32000]            144
├─ModuleList: 1-73                       --                        (recursive)
│    └─CausalConv1d: 2-60                [8, 8, 32000]             72
├─ModuleList: 1-72                       --                        (recursive)
│    └─CausalConv1d: 2-61                [8, 16, 32000]            144
├─ModuleList: 1-73                       --                        (recursive)
│    └─CausalConv1d: 2-62                [8, 8, 32000]             72
├─ModuleList: 1-72                       --                        (recursive)
│    └─CausalConv1d: 2-63                [8, 16, 32000]            144
├─ModuleList: 1-73                       --                        (recursive)
│    └─CausalConv1d: 2-64                [8, 8, 32000]             72
├─ModuleList: 1-72                       --                        (recursive)
│    └─CausalConv1d: 2-65                [8, 16, 32000]            144
├─ModuleList: 1-73                       --                        (recursive)
│    └─CausalConv1d: 2-66                [8, 8, 32000]             72
├─ModuleList: 1-72                       --                        (recursive)
│    └─CausalConv1d: 2-67                [8, 16, 32000]            144
├─ModuleList: 1-73                       --                        (recursive)
│    └─CausalConv1d: 2-68                [8, 8, 32000]             72
├─ModuleList: 1-72                       --                        (recursive)
│    └─CausalConv1d: 2-69                [8, 16, 32000]            144
├─ModuleList: 1-73                       --                        (recursive)
│    └─CausalConv1d: 2-70                [8, 8, 32000]             72
├─ModuleList: 1-72                       --                        (recursive)
│    └─CausalConv1d: 2-71                [8, 16, 32000]            144
├─ModuleList: 1-73                       --                        (recursive)
│    └─CausalConv1d: 2-72                [8, 8, 32000]             72
├─Conv1d: 1-74                           [8, 1, 32000]             289
==========================================================================================
Total params: 8,081
Trainable params: 8,081
Non-trainable params: 0
Total mult-adds (G): 2.07
==========================================================================================
Input size (MB): 1.02
Forward/backward pass size (MB): 1787.90
Params size (MB): 0.03
Estimated Total Size (MB): 1788.96
==========================================================================================

Configuration name: WN-1k
Model name: WN-1k_50_8_0.001_20230706-203002
Receptive field: 54 samples or 3.4 ms
Number of parameters: 8081
==========================================================================================
Layer (type:depth-idx)                   Output Shape              Param #
==========================================================================================
WaveNet                                  [8, 1, 32000]             --
├─CausalConv1d: 1-1                      [8, 8, 32000]             16
├─ModuleList: 1-72                       --                        (recursive)
│    └─CausalConv1d: 2-1                 [8, 16, 32000]            144
├─ModuleList: 1-73                       --                        (recursive)
│    └─CausalConv1d: 2-2                 [8, 8, 32000]             72
├─ModuleList: 1-72                       --                        (recursive)
│    └─CausalConv1d: 2-3                 [8, 16, 32000]            144
├─ModuleList: 1-73                       --                        (recursive)
│    └─CausalConv1d: 2-4                 [8, 8, 32000]             72
├─ModuleList: 1-72                       --                        (recursive)
│    └─CausalConv1d: 2-5                 [8, 16, 32000]            144
├─ModuleList: 1-73                       --                        (recursive)
│    └─CausalConv1d: 2-6                 [8, 8, 32000]             72
├─ModuleList: 1-72                       --                        (recursive)
│    └─CausalConv1d: 2-7                 [8, 16, 32000]            144
├─ModuleList: 1-73                       --                        (recursive)
│    └─CausalConv1d: 2-8                 [8, 8, 32000]             72
├─ModuleList: 1-72                       --                        (recursive)
│    └─CausalConv1d: 2-9                 [8, 16, 32000]            144
├─ModuleList: 1-73                       --                        (recursive)
│    └─CausalConv1d: 2-10                [8, 8, 32000]             72
├─ModuleList: 1-72                       --                        (recursive)
│    └─CausalConv1d: 2-11                [8, 16, 32000]            144
├─ModuleList: 1-73                       --                        (recursive)
│    └─CausalConv1d: 2-12                [8, 8, 32000]             72
├─ModuleList: 1-72                       --                        (recursive)
│    └─CausalConv1d: 2-13                [8, 16, 32000]            144
├─ModuleList: 1-73                       --                        (recursive)
│    └─CausalConv1d: 2-14                [8, 8, 32000]             72
├─ModuleList: 1-72                       --                        (recursive)
│    └─CausalConv1d: 2-15                [8, 16, 32000]            144
├─ModuleList: 1-73                       --                        (recursive)
│    └─CausalConv1d: 2-16                [8, 8, 32000]             72
├─ModuleList: 1-72                       --                        (recursive)
│    └─CausalConv1d: 2-17                [8, 16, 32000]            144
├─ModuleList: 1-73                       --                        (recursive)
│    └─CausalConv1d: 2-18                [8, 8, 32000]             72
├─ModuleList: 1-72                       --                        (recursive)
│    └─CausalConv1d: 2-19                [8, 16, 32000]            144
├─ModuleList: 1-73                       --                        (recursive)
│    └─CausalConv1d: 2-20                [8, 8, 32000]             72
├─ModuleList: 1-72                       --                        (recursive)
│    └─CausalConv1d: 2-21                [8, 16, 32000]            144
├─ModuleList: 1-73                       --                        (recursive)
│    └─CausalConv1d: 2-22                [8, 8, 32000]             72
├─ModuleList: 1-72                       --                        (recursive)
│    └─CausalConv1d: 2-23                [8, 16, 32000]            144
├─ModuleList: 1-73                       --                        (recursive)
│    └─CausalConv1d: 2-24                [8, 8, 32000]             72
├─ModuleList: 1-72                       --                        (recursive)
│    └─CausalConv1d: 2-25                [8, 16, 32000]            144
├─ModuleList: 1-73                       --                        (recursive)
│    └─CausalConv1d: 2-26                [8, 8, 32000]             72
├─ModuleList: 1-72                       --                        (recursive)
│    └─CausalConv1d: 2-27                [8, 16, 32000]            144
├─ModuleList: 1-73                       --                        (recursive)
│    └─CausalConv1d: 2-28                [8, 8, 32000]             72
├─ModuleList: 1-72                       --                        (recursive)
│    └─CausalConv1d: 2-29                [8, 16, 32000]            144
├─ModuleList: 1-73                       --                        (recursive)
│    └─CausalConv1d: 2-30                [8, 8, 32000]             72
├─ModuleList: 1-72                       --                        (recursive)
│    └─CausalConv1d: 2-31                [8, 16, 32000]            144
├─ModuleList: 1-73                       --                        (recursive)
│    └─CausalConv1d: 2-32                [8, 8, 32000]             72
├─ModuleList: 1-72                       --                        (recursive)
│    └─CausalConv1d: 2-33                [8, 16, 32000]            144
├─ModuleList: 1-73                       --                        (recursive)
│    └─CausalConv1d: 2-34                [8, 8, 32000]             72
├─ModuleList: 1-72                       --                        (recursive)
│    └─CausalConv1d: 2-35                [8, 16, 32000]            144
├─ModuleList: 1-73                       --                        (recursive)
│    └─CausalConv1d: 2-36                [8, 8, 32000]             72
├─ModuleList: 1-72                       --                        (recursive)
│    └─CausalConv1d: 2-37                [8, 16, 32000]            144
├─ModuleList: 1-73                       --                        (recursive)
│    └─CausalConv1d: 2-38                [8, 8, 32000]             72
├─ModuleList: 1-72                       --                        (recursive)
│    └─CausalConv1d: 2-39                [8, 16, 32000]            144
├─ModuleList: 1-73                       --                        (recursive)
│    └─CausalConv1d: 2-40                [8, 8, 32000]             72
├─ModuleList: 1-72                       --                        (recursive)
│    └─CausalConv1d: 2-41                [8, 16, 32000]            144
├─ModuleList: 1-73                       --                        (recursive)
│    └─CausalConv1d: 2-42                [8, 8, 32000]             72
├─ModuleList: 1-72                       --                        (recursive)
│    └─CausalConv1d: 2-43                [8, 16, 32000]            144
├─ModuleList: 1-73                       --                        (recursive)
│    └─CausalConv1d: 2-44                [8, 8, 32000]             72
├─ModuleList: 1-72                       --                        (recursive)
│    └─CausalConv1d: 2-45                [8, 16, 32000]            144
├─ModuleList: 1-73                       --                        (recursive)
│    └─CausalConv1d: 2-46                [8, 8, 32000]             72
├─ModuleList: 1-72                       --                        (recursive)
│    └─CausalConv1d: 2-47                [8, 16, 32000]            144
├─ModuleList: 1-73                       --                        (recursive)
│    └─CausalConv1d: 2-48                [8, 8, 32000]             72
├─ModuleList: 1-72                       --                        (recursive)
│    └─CausalConv1d: 2-49                [8, 16, 32000]            144
├─ModuleList: 1-73                       --                        (recursive)
│    └─CausalConv1d: 2-50                [8, 8, 32000]             72
├─ModuleList: 1-72                       --                        (recursive)
│    └─CausalConv1d: 2-51                [8, 16, 32000]            144
├─ModuleList: 1-73                       --                        (recursive)
│    └─CausalConv1d: 2-52                [8, 8, 32000]             72
├─ModuleList: 1-72                       --                        (recursive)
│    └─CausalConv1d: 2-53                [8, 16, 32000]            144
├─ModuleList: 1-73                       --                        (recursive)
│    └─CausalConv1d: 2-54                [8, 8, 32000]             72
├─ModuleList: 1-72                       --                        (recursive)
│    └─CausalConv1d: 2-55                [8, 16, 32000]            144
├─ModuleList: 1-73                       --                        (recursive)
│    └─CausalConv1d: 2-56                [8, 8, 32000]             72
├─ModuleList: 1-72                       --                        (recursive)
│    └─CausalConv1d: 2-57                [8, 16, 32000]            144
├─ModuleList: 1-73                       --                        (recursive)
│    └─CausalConv1d: 2-58                [8, 8, 32000]             72
├─ModuleList: 1-72                       --                        (recursive)
│    └─CausalConv1d: 2-59                [8, 16, 32000]            144
├─ModuleList: 1-73                       --                        (recursive)
│    └─CausalConv1d: 2-60                [8, 8, 32000]             72
├─ModuleList: 1-72                       --                        (recursive)
│    └─CausalConv1d: 2-61                [8, 16, 32000]            144
├─ModuleList: 1-73                       --                        (recursive)
│    └─CausalConv1d: 2-62                [8, 8, 32000]             72
├─ModuleList: 1-72                       --                        (recursive)
│    └─CausalConv1d: 2-63                [8, 16, 32000]            144
├─ModuleList: 1-73                       --                        (recursive)
│    └─CausalConv1d: 2-64                [8, 8, 32000]             72
├─ModuleList: 1-72                       --                        (recursive)
│    └─CausalConv1d: 2-65                [8, 16, 32000]            144
├─ModuleList: 1-73                       --                        (recursive)
│    └─CausalConv1d: 2-66                [8, 8, 32000]             72
├─ModuleList: 1-72                       --                        (recursive)
│    └─CausalConv1d: 2-67                [8, 16, 32000]            144
├─ModuleList: 1-73                       --                        (recursive)
│    └─CausalConv1d: 2-68                [8, 8, 32000]             72
├─ModuleList: 1-72                       --                        (recursive)
│    └─CausalConv1d: 2-69                [8, 16, 32000]            144
├─ModuleList: 1-73                       --                        (recursive)
│    └─CausalConv1d: 2-70                [8, 8, 32000]             72
├─ModuleList: 1-72                       --                        (recursive)
│    └─CausalConv1d: 2-71                [8, 16, 32000]            144
├─ModuleList: 1-73                       --                        (recursive)
│    └─CausalConv1d: 2-72                [8, 8, 32000]             72
├─Conv1d: 1-74                           [8, 1, 32000]             289
==========================================================================================
Total params: 8,081
Trainable params: 8,081
Non-trainable params: 0
Total mult-adds (G): 2.07
==========================================================================================
Input size (MB): 1.02
Forward/backward pass size (MB): 1787.90
Params size (MB): 0.03
Estimated Total Size (MB): 1788.96
==========================================================================================

Configuration name: LSTM-BL
Model name: LSTM-BL_100_8_0.001_20230707-190658

Number of parameters: 12961
==========================================================================================
Layer (type:depth-idx)                   Output Shape              Param #
==========================================================================================
LSTM                                     [8, 1, 32000]             --
├─LSTM: 1-1                              [32000, 8, 32]            12,928
├─Linear: 1-2                            [32000, 8, 1]             33
├─Tanh: 1-3                              [32000, 8, 1]             --
==========================================================================================
Total params: 12,961
Trainable params: 12,961
Non-trainable params: 0
Total mult-adds (G): 3.31
==========================================================================================
Input size (MB): 1.02
Forward/backward pass size (MB): 67.58
Params size (MB): 0.05
Estimated Total Size (MB): 68.66
==========================================================================================
…
Forward/backward pass size (MB): 792.58
Params size (MB): 0.13
Estimated Total Size (MB): 793.73
==========================================================================================

Configuration name: WN-22k
Model name: WN-22k_50_8_0.001_20230706-152332
Receptive field: 22950 samples or 1434.4 ms
Number of parameters: 414753
==========================================================================================
Layer (type:depth-idx)                   Output Shape              Param #
==========================================================================================
WaveNet                                  [8, 1, 32000]             --
├─CausalConv1d: 1-1                      [8, 16, 32000]            32
├─ModuleList: 1-288                      --                        (recursive)
│    └─CausalConv1d: 2-1                 [8, 32, 32000]            2,592
├─ModuleList: 1-289                      --                        (recursive)
│    └─CausalConv1d: 2-2                 [8, 16, 32000]            272
├─ModuleList: 1-288                      --                        (recursive)
│    └─CausalConv1d: 2-3                 [8, 32, 32000]            2,592
├─ModuleList: 1-289                      --                        (recursive)
│    └─CausalConv1d: 2-4                 [8, 16, 32000]            272
├─ModuleList: 1-288                      --                        (recursive)
│    └─CausalConv1d: 2-5                 [8, 32, 32000]            2,592
├─ModuleList: 1-289                      --                        (recursive)
│    └─CausalConv1d: 2-6                 [8, 16, 32000]            272
├─ModuleList: 1-288                      --                        (recursive)
│    └─CausalConv1d: 2-7                 [8, 32, 32000]            2,592
├─ModuleList: 1-289                      --                        (recursive)
│    └─CausalConv1d: 2-8                 [8, 16, 32000]            272
├─ModuleList: 1-288                      --                        (recursive)
│    └─CausalConv1d: 2-9                 [8, 32, 32000]            2,592
├─ModuleList: 1-289                      --                        (recursive)
│    └─CausalConv1d: 2-10                [8, 16, 32000]            272
├─ModuleList: 1-288                      --                        (recursive)
│    └─CausalConv1d: 2-11                [8, 32, 32000]            2,592
├─ModuleList: 1-289                      --                        (recursive)
│    └─CausalConv1d: 2-12                [8, 16, 32000]            272
├─ModuleList: 1-288                      --                        (recursive)
│    └─CausalConv1d: 2-13                [8, 32, 32000]            2,592
├─ModuleList: 1-289                      --                        (recursive)
│    └─CausalConv1d: 2-14                [8, 16, 32000]            272
├─ModuleList: 1-288                      --                        (recursive)
│    └─CausalConv1d: 2-15                [8, 32, 32000]            2,592
├─ModuleList: 1-289                      --                        (recursive)
│    └─CausalConv1d: 2-16                [8, 16, 32000]            272
├─ModuleList: 1-288                      --                        (recursive)
│    └─CausalConv1d: 2-17                [8, 32, 32000]            2,592
├─ModuleList: 1-289                      --                        (recursive)
│    └─CausalConv1d: 2-18                [8, 16, 32000]            272
├─ModuleList: 1-288                      --                        (recursive)
│    └─CausalConv1d: 2-19                [8, 32, 32000]            2,592
├─ModuleList: 1-289                      --                        (recursive)
│    └─CausalConv1d: 2-20                [8, 16, 32000]            272
├─ModuleList: 1-288                      --                        (recursive)
│    └─CausalConv1d: 2-21                [8, 32, 32000]            2,592
├─ModuleList: 1-289                      --                        (recursive)
│    └─CausalConv1d: 2-22                [8, 16, 32000]            272
├─ModuleList: 1-288                      --                        (recursive)
│    └─CausalConv1d: 2-23                [8, 32, 32000]            2,592
├─ModuleList: 1-289                      --                        (recursive)
│    └─CausalConv1d: 2-24                [8, 16, 32000]            272
├─ModuleList: 1-288                      --                        (recursive)
│    └─CausalConv1d: 2-25                [8, 32, 32000]            2,592
├─ModuleList: 1-289                      --                        (recursive)
│    └─CausalConv1d: 2-26                [8, 16, 32000]            272
├─ModuleList: 1-288                      --                        (recursive)
│    └─CausalConv1d: 2-27                [8, 32, 32000]            2,592
├─ModuleList: 1-289                      --                        (recursive)
│    └─CausalConv1d: 2-28                [8, 16, 32000]            272
├─ModuleList: 1-288                      --                        (recursive)
│    └─CausalConv1d: 2-29                [8, 32, 32000]            2,592
├─ModuleList: 1-289                      --                        (recursive)
│    └─CausalConv1d: 2-30                [8, 16, 32000]            272
├─ModuleList: 1-288                      --                        (recursive)
│    └─CausalConv1d: 2-31                [8, 32, 32000]            2,592
├─ModuleList: 1-289                      --                        (recursive)
│    └─CausalConv1d: 2-32                [8, 16, 32000]            272
├─ModuleList: 1-288                      --                        (recursive)
│    └─CausalConv1d: 2-33                [8, 32, 32000]            2,592
├─ModuleList: 1-289                      --                        (recursive)
│    └─CausalConv1d: 2-34                [8, 16, 32000]            272
├─ModuleList: 1-288                      --                        (recursive)
│    └─CausalConv1d: 2-35                [8, 32, 32000]            2,592
├─ModuleList: 1-289                      --                        (recursive)
│    └─CausalConv1d: 2-36                [8, 16, 32000]            272
├─ModuleList: 1-288                      --                        (recursive)
│    └─CausalConv1d: 2-37                [8, 32, 32000]            2,592
├─ModuleList: 1-289                      --                        (recursive)
│    └─CausalConv1d: 2-38                [8, 16, 32000]            272
├─ModuleList: 1-288                      --                        (recursive)
│    └─CausalConv1d: 2-39                [8, 32, 32000]            2,592
├─ModuleList: 1-289                      --                        (recursive)
│    └─CausalConv1d: 2-40                [8, 16, 32000]            272
├─ModuleList: 1-288                      --                        (recursive)
│    └─CausalConv1d: 2-41                [8, 32, 32000]            2,592
├─ModuleList: 1-289                      --                        (recursive)
│    └─CausalConv1d: 2-42                [8, 16, 32000]            272
├─ModuleList: 1-288                      --                        (recursive)
│    └─CausalConv1d: 2-43                [8, 32, 32000]            2,592
├─ModuleList: 1-289                      --                        (recursive)
│    └─CausalConv1d: 2-44                [8, 16, 32000]            272
├─ModuleList: 1-288                      --                        (recursive)
│    └─CausalConv1d: 2-45                [8, 32, 32000]            2,592
├─ModuleList: 1-289                      --                        (recursive)
│    └─CausalConv1d: 2-46                [8, 16, 32000]            272
├─ModuleList: 1-288                      --                        (recursive)
│    └─CausalConv1d: 2-47                [8, 32, 32000]            2,592
├─ModuleList: 1-289                      --                        (recursive)
│    └─CausalConv1d: 2-48                [8, 16, 32000]            272
├─ModuleList: 1-288                      --                        (recursive)
│    └─CausalConv1d: 2-49                [8, 32, 32000]            2,592
├─ModuleList: 1-289                      --                        (recursive)
│    └─CausalConv1d: 2-50                [8, 16, 32000]            272
├─ModuleList: 1-288                      --                        (recursive)
│    └─CausalConv1d: 2-51                [8, 32, 32000]            2,592
├─ModuleList: 1-289                      --                        (recursive)
│    └─CausalConv1d: 2-52                [8, 16, 32000]            272
├─ModuleList: 1-288                      --                        (recursive)
│    └─CausalConv1d: 2-53                [8, 32, 32000]            2,592
├─ModuleList: 1-289                      --                        (recursive)
│    └─CausalConv1d: 2-54                [8, 16, 32000]            272
├─ModuleList: 1-288                      --                        (recursive)
│    └─CausalConv1d: 2-55                [8, 32, 32000]            2,592
├─ModuleList: 1-289                      --                        (recursive)
│    └─CausalConv1d: 2-56                [8, 16, 32000]            272
├─ModuleList: 1-288                      --                        (recursive)
│    └─CausalConv1d: 2-57                [8, 32, 32000]            2,592
├─ModuleList: 1-289                      --                        (recursive)
│    └─CausalConv1d: 2-58                [8, 16, 32000]            272
├─ModuleList: 1-288                      --                        (recursive)
│    └─CausalConv1d: 2-59                [8, 32, 32000]            2,592
├─ModuleList: 1-289                      --                        (recursive)
│    └─CausalConv1d: 2-60                [8, 16, 32000]            272
├─ModuleList: 1-288                      --                        (recursive)
│    └─CausalConv1d: 2-61                [8, 32, 32000]            2,592
├─ModuleList: 1-289                      --                        (recursive)
│    └─CausalConv1d: 2-62                [8, 16, 32000]            272
├─ModuleList: 1-288                      --                        (recursive)
│    └─CausalConv1d: 2-63                [8, 32, 32000]            2,592
├─ModuleList: 1-289                      --                        (recursive)
│    └─CausalConv1d: 2-64                [8, 16, 32000]            272
├─ModuleList: 1-288                      --                        (recursive)
│    └─CausalConv1d: 2-65                [8, 32, 32000]            2,592
├─ModuleList: 1-289                      --                        (recursive)
│    └─CausalConv1d: 2-66                [8, 16, 32000]            272
├─ModuleList: 1-288                      --                        (recursive)
│    └─CausalConv1d: 2-67                [8, 32, 32000]            2,592
├─ModuleList: 1-289                      --                        (recursive)
│    └─CausalConv1d: 2-68                [8, 16, 32000]            272
├─ModuleList: 1-288                      --                        (recursive)
│    └─CausalConv1d: 2-69                [8, 32, 32000]            2,592
├─ModuleList: 1-289                      --                        (recursive)
│    └─CausalConv1d: 2-70                [8, 16, 32000]            272
├─ModuleList: 1-288                      --                        (recursive)
│    └─CausalConv1d: 2-71                [8, 32, 32000]            2,592
├─ModuleList: 1-289                      --                        (recursive)
│    └─CausalConv1d: 2-72                [8, 16, 32000]            272
├─ModuleList: 1-288                      --                        (recursive)
│    └─CausalConv1d: 2-73                [8, 32, 32000]            2,592
├─ModuleList: 1-289                      --                        (recursive)
│    └─CausalConv1d: 2-74                [8, 16, 32000]            272
├─ModuleList: 1-288                      --                        (recursive)
│    └─CausalConv1d: 2-75                [8, 32, 32000]            2,592
├─ModuleList: 1-289                      --                        (recursive)
│    └─CausalConv1d: 2-76                [8, 16, 32000]            272
├─ModuleList: 1-288                      --                        (recursive)
│    └─CausalConv1d: 2-77                [8, 32, 32000]            2,592
├─ModuleList: 1-289                      --                        (recursive)
│    └─CausalConv1d: 2-78                [8, 16, 32000]            272
├─ModuleList: 1-288                      --                        (recursive)
│    └─CausalConv1d: 2-79                [8, 32, 32000]            2,592
├─ModuleList: 1-289                      --                        (recursive)
│    └─CausalConv1d: 2-80                [8, 16, 32000]            272
├─ModuleList: 1-288                      --                        (recursive)
│    └─CausalConv1d: 2-81                [8, 32, 32000]            2,592
├─ModuleList: 1-289                      --                        (recursive)
│    └─CausalConv1d: 2-82                [8, 16, 32000]            272
├─ModuleList: 1-288                      --                        (recursive)
│    └─CausalConv1d: 2-83                [8, 32, 32000]            2,592
├─ModuleList: 1-289                      --                        (recursive)
│    └─CausalConv1d: 2-84                [8, 16, 32000]            272
├─ModuleList: 1-288                      --                        (recursive)
│    └─CausalConv1d: 2-85                [8, 32, 32000]            2,592
├─ModuleList: 1-289                      --                        (recursive)
│    └─CausalConv1d: 2-86                [8, 16, 32000]            272
├─ModuleList: 1-288                      --                        (recursive)
│    └─CausalConv1d: 2-87                [8, 32, 32000]            2,592
├─ModuleList: 1-289                      --                        (recursive)
│    └─CausalConv1d: 2-88                [8, 16, 32000]            272
├─ModuleList: 1-288                      --                        (recursive)
│    └─CausalConv1d: 2-89                [8, 32, 32000]            2,592
├─ModuleList: 1-289                      --                        (recursive)
│    └─CausalConv1d: 2-90                [8, 16, 32000]            272
├─ModuleList: 1-288                      --                        (recursive)
│    └─CausalConv1d: 2-91                [8, 32, 32000]            2,592
├─ModuleList: 1-289                      --                        (recursive)
│    └─CausalConv1d: 2-92                [8, 16, 32000]            272
├─ModuleList: 1-288                      --                        (recursive)
│    └─CausalConv1d: 2-93                [8, 32, 32000]            2,592
├─ModuleList: 1-289                      --                        (recursive)
│    └─CausalConv1d: 2-94                [8, 16, 32000]            272
├─ModuleList: 1-288                      --                        (recursive)
│    └─CausalConv1d: 2-95                [8, 32, 32000]            2,592
├─ModuleList: 1-289                      --                        (recursive)
│    └─CausalConv1d: 2-96                [8, 16, 32000]            272
├─ModuleList: 1-288                      --                        (recursive)
│    └─CausalConv1d: 2-97                [8, 32, 32000]            2,592
├─ModuleList: 1-289                      --                        (recursive)
│    └─CausalConv1d: 2-98                [8, 16, 32000]            272
├─ModuleList: 1-288                      --                        (recursive)
│    └─CausalConv1d: 2-99                [8, 32, 32000]            2,592
├─ModuleList: 1-289                      --                        (recursive)
│    └─CausalConv1d: 2-100               [8, 16, 32000]            272
├─ModuleList: 1-288                      --                        (recursive)
│    └─CausalConv1d: 2-101               [8, 32, 32000]            2,592
├─ModuleList: 1-289                      --                        (recursive)
│    └─CausalConv1d: 2-102               [8, 16, 32000]            272
├─ModuleList: 1-288                      --                        (recursive)
│    └─CausalConv1d: 2-103               [8, 32, 32000]            2,592
├─ModuleList: 1-289                      --                        (recursive)
│    └─CausalConv1d: 2-104               [8, 16, 32000]            272
├─ModuleList: 1-288                      --                        (recursive)
│    └─CausalConv1d: 2-105               [8, 32, 32000]            2,592
├─ModuleList: 1-289                      --                        (recursive)
│    └─CausalConv1d: 2-106               [8, 16, 32000]            272
├─ModuleList: 1-288                      --                        (recursive)
│    └─CausalConv1d: 2-107               [8, 32, 32000]            2,592
├─ModuleList: 1-289                      --                        (recursive)
│    └─CausalConv1d: 2-108               [8, 16, 32000]            272
├─ModuleList: 1-288                      --                        (recursive)
│    └─CausalConv1d: 2-109               [8, 32, 32000]            2,592
├─ModuleList: 1-289                      --                        (recursive)
│    └─CausalConv1d: 2-110               [8, 16, 32000]            272
├─ModuleList: 1-288                      --                        (recursive)
│    └─CausalConv1d: 2-111               [8, 32, 32000]            2,592
├─ModuleList: 1-289                      --                        (recursive)
│    └─CausalConv1d: 2-112               [8, 16, 32000]            272
├─ModuleList: 1-288                      --                        (recursive)
│    └─CausalConv1d: 2-113               [8, 32, 32000]            2,592
├─ModuleList: 1-289                      --                        (recursive)
│    └─CausalConv1d: 2-114               [8, 16, 32000]            272
├─ModuleList: 1-288                      --                        (recursive)
│    └─CausalConv1d: 2-115               [8, 32, 32000]            2,592
├─ModuleList: 1-289                      --                        (recursive)
│    └─CausalConv1d: 2-116               [8, 16, 32000]            272
├─ModuleList: 1-288                      --                        (recursive)
│    └─CausalConv1d: 2-117               [8, 32, 32000]            2,592
├─ModuleList: 1-289                      --                        (recursive)
│    └─CausalConv1d: 2-118               [8, 16, 32000]            272
├─ModuleList: 1-288                      --                        (recursive)
│    └─CausalConv1d: 2-119               [8, 32, 32000]            2,592
├─ModuleList: 1-289                      --                        (recursive)
│    └─CausalConv1d: 2-120               [8, 16, 32000]            272
├─ModuleList: 1-288                      --                        (recursive)
│    └─CausalConv1d: 2-121               [8, 32, 32000]            2,592
├─ModuleList: 1-289                      --                        (recursive)
│    └─CausalConv1d: 2-122               [8, 16, 32000]            272
├─ModuleList: 1-288                      --                        (recursive)
│    └─CausalConv1d: 2-123               [8, 32, 32000]            2,592
├─ModuleList: 1-289                      --                        (recursive)
│    └─CausalConv1d: 2-124               [8, 16, 32000]            272
├─ModuleList: 1-288                      --                        (recursive)
│    └─CausalConv1d: 2-125               [8, 32, 32000]            2,592
├─ModuleList: 1-289                      --                        (recursive)
│    └─CausalConv1d: 2-126               [8, 16, 32000]            272
├─ModuleList: 1-288                      --                        (recursive)
│    └─CausalConv1d: 2-127               [8, 32, 32000]            2,592
├─ModuleList: 1-289                      --                        (recursive)
│    └─CausalConv1d: 2-128               [8, 16, 32000]            272
├─ModuleList: 1-288                      --                        (recursive)
│    └─CausalConv1d: 2-129               [8, 32, 32000]            2,592
├─ModuleList: 1-289                      --                        (recursive)
│    └─CausalConv1d: 2-130               [8, 16, 32000]            272
├─ModuleList: 1-288                      --                        (recursive)
│    └─CausalConv1d: 2-131               [8, 32, 32000]            2,592
├─ModuleList: 1-289                      --                        (recursive)
│    └─CausalConv1d: 2-132               [8, 16, 32000]            272
├─ModuleList: 1-288                      --                        (recursive)
│    └─CausalConv1d: 2-133               [8, 32, 32000]            2,592
├─ModuleList: 1-289                      --                        (recursive)
│    └─CausalConv1d: 2-134               [8, 16, 32000]            272
├─ModuleList: 1-288                      --                        (recursive)
│    └─CausalConv1d: 2-135               [8, 32, 32000]            2,592
├─ModuleList: 1-289                      --                        (recursive)
│    └─CausalConv1d: 2-136               [8, 16, 32000]            272
├─ModuleList: 1-288                      --                        (recursive)
│    └─CausalConv1d: 2-137               [8, 32, 32000]            2,592
├─ModuleList: 1-289                      --                        (recursive)
│    └─CausalConv1d: 2-138               [8, 16, 32000]            272
├─ModuleList: 1-288                      --                        (recursive)
│    └─CausalConv1d: 2-139               [8, 32, 32000]            2,592
├─ModuleList: 1-289                      --                        (recursive)
│    └─CausalConv1d: 2-140               [8, 16, 32000]            272
├─ModuleList: 1-288                      --                        (recursive)
│    └─CausalConv1d: 2-141               [8, 32, 32000]            2,592
├─ModuleList: 1-289                      --                        (recursive)
│    └─CausalConv1d: 2-142               [8, 16, 32000]            272
├─ModuleList: 1-288                      --                        (recursive)
│    └─CausalConv1d: 2-143               [8, 32, 32000]            2,592
├─ModuleList: 1-289                      --                        (recursive)
│    └─CausalConv1d: 2-144               [8, 16, 32000]            272
├─ModuleList: 1-288                      --                        (recursive)
│    └─CausalConv1d: 2-145               [8, 32, 32000]            2,592
├─ModuleList: 1-289                      --                        (recursive)
│    └─CausalConv1d: 2-146               [8, 16, 32000]            272
├─ModuleList: 1-288                      --                        (recursive)
│    └─CausalConv1d: 2-147               [8, 32, 32000]            2,592
├─ModuleList: 1-289                      --                        (recursive)
│    └─CausalConv1d: 2-148               [8, 16, 32000]            272
├─ModuleList: 1-288                      --                        (recursive)
│    └─CausalConv1d: 2-149               [8, 32, 32000]            2,592
├─ModuleList: 1-289                      --                        (recursive)
│    └─CausalConv1d: 2-150               [8, 16, 32000]            272
├─ModuleList: 1-288                      --                        (recursive)
│    └─CausalConv1d: 2-151               [8, 32, 32000]            2,592
├─ModuleList: 1-289                      --                        (recursive)
│    └─CausalConv1d: 2-152               [8, 16, 32000]            272
├─ModuleList: 1-288                      --                        (recursive)
│    └─CausalConv1d: 2-153               [8, 32, 32000]            2,592
├─ModuleList: 1-289                      --                        (recursive)
│    └─CausalConv1d: 2-154               [8, 16, 32000]            272
├─ModuleList: 1-288                      --                        (recursive)
│    └─CausalConv1d: 2-155               [8, 32, 32000]            2,592
├─ModuleList: 1-289                      --                        (recursive)
│    └─CausalConv1d: 2-156               [8, 16, 32000]            272
├─ModuleList: 1-288                      --                        (recursive)
│    └─CausalConv1d: 2-157               [8, 32, 32000]            2,592
├─ModuleList: 1-289                      --                        (recursive)
│    └─CausalConv1d: 2-158               [8, 16, 32000]            272
├─ModuleList: 1-288                      --                        (recursive)
│    └─CausalConv1d: 2-159               [8, 32, 32000]            2,592
├─ModuleList: 1-289                      --                        (recursive)
│    └─CausalConv1d: 2-160               [8, 16, 32000]            272
├─ModuleList: 1-288                      --                        (recursive)
│    └─CausalConv1d: 2-161               [8, 32, 32000]            2,592
├─ModuleList: 1-289                      --                        (recursive)
│    └─CausalConv1d: 2-162               [8, 16, 32000]            272
├─ModuleList: 1-288                      --                        (recursive)
│    └─CausalConv1d: 2-163               [8, 32, 32000]            2,592
├─ModuleList: 1-289                      --                        (recursive)
│    └─CausalConv1d: 2-164               [8, 16, 32000]            272
├─ModuleList: 1-288                      --                        (recursive)
│    └─CausalConv1d: 2-165               [8, 32, 32000]            2,592
├─ModuleList: 1-289                      --                        (recursive)
│    └─CausalConv1d: 2-166               [8, 16, 32000]            272
├─ModuleList: 1-288                      --                        (recursive)
│    └─CausalConv1d: 2-167               [8, 32, 32000]            2,592
├─ModuleList: 1-289                      --                        (recursive)
│    └─CausalConv1d: 2-168               [8, 16, 32000]            272
├─ModuleList: 1-288                      --                        (recursive)
│    └─CausalConv1d: 2-169               [8, 32, 32000]            2,592
├─ModuleList: 1-289                      --                        (recursive)
│    └─CausalConv1d: 2-170               [8, 16, 32000]            272
├─ModuleList: 1-288                      --                        (recursive)
│    └─CausalConv1d: 2-171               [8, 32, 32000]            2,592
├─ModuleList: 1-289                      --                        (recursive)
│    └─CausalConv1d: 2-172               [8, 16, 32000]            272
├─ModuleList: 1-288                      --                        (recursive)
│    └─CausalConv1d: 2-173               [8, 32, 32000]            2,592
├─ModuleList: 1-289                      --                        (recursive)
│    └─CausalConv1d: 2-174               [8, 16, 32000]            272
├─ModuleList: 1-288                      --                        (recursive)
│    └─CausalConv1d: 2-175               [8, 32, 32000]            2,592
├─ModuleList: 1-289                      --                        (recursive)
│    └─CausalConv1d: 2-176               [8, 16, 32000]            272
├─ModuleList: 1-288                      --                        (recursive)
│    └─CausalConv1d: 2-177               [8, 32, 32000]            2,592
├─ModuleList: 1-289                      --                        (recursive)
│    └─CausalConv1d: 2-178               [8, 16, 32000]            272
├─ModuleList: 1-288                      --                        (recursive)
│    └─CausalConv1d: 2-179               [8, 32, 32000]            2,592
├─ModuleList: 1-289                      --                        (recursive)
│    └─CausalConv1d: 2-180               [8, 16, 32000]            272
├─ModuleList: 1-288                      --                        (recursive)
│    └─CausalConv1d: 2-181               [8, 32, 32000]            2,592
├─ModuleList: 1-289                      --                        (recursive)
│    └─CausalConv1d: 2-182               [8, 16, 32000]            272
├─ModuleList: 1-288                      --                        (recursive)
│    └─CausalConv1d: 2-183               [8, 32, 32000]            2,592
├─ModuleList: 1-289                      --                        (recursive)
│    └─CausalConv1d: 2-184               [8, 16, 32000]            272
├─ModuleList: 1-288                      --                        (recursive)
│    └─CausalConv1d: 2-185               [8, 32, 32000]            2,592
├─ModuleList: 1-289                      --                        (recursive)
│    └─CausalConv1d: 2-186               [8, 16, 32000]            272
├─ModuleList: 1-288                      --                        (recursive)
│    └─CausalConv1d: 2-187               [8, 32, 32000]            2,592
├─ModuleList: 1-289                      --                        (recursive)
│    └─CausalConv1d: 2-188               [8, 16, 32000]            272
├─ModuleList: 1-288                      --                        (recursive)
│    └─CausalConv1d: 2-189               [8, 32, 32000]            2,592
├─ModuleList: 1-289                      --                        (recursive)
│    └─CausalConv1d: 2-190               [8, 16, 32000]            272
├─ModuleList: 1-288                      --                        (recursive)
│    └─CausalConv1d: 2-191               [8, 32, 32000]            2,592
├─ModuleList: 1-289                      --                        (recursive)
│    └─CausalConv1d: 2-192               [8, 16, 32000]            272
├─ModuleList: 1-288                      --                        (recursive)
│    └─CausalConv1d: 2-193               [8, 32, 32000]            2,592
├─ModuleList: 1-289                      --                        (recursive)
│    └─CausalConv1d: 2-194               [8, 16, 32000]            272
├─ModuleList: 1-288                      --                        (recursive)
│    └─CausalConv1d: 2-195               [8, 32, 32000]            2,592
├─ModuleList: 1-289                      --                        (recursive)
│    └─CausalConv1d: 2-196               [8, 16, 32000]            272
├─ModuleList: 1-288                      --                        (recursive)
│    └─CausalConv1d: 2-197               [8, 32, 32000]            2,592
├─ModuleList: 1-289                      --                        (recursive)
│    └─CausalConv1d: 2-198               [8, 16, 32000]            272
├─ModuleList: 1-288                      --                        (recursive)
│    └─CausalConv1d: 2-199               [8, 32, 32000]            2,592
├─ModuleList: 1-289                      --                        (recursive)
│    └─CausalConv1d: 2-200               [8, 16, 32000]            272
├─ModuleList: 1-288                      --                        (recursive)
│    └─CausalConv1d: 2-201               [8, 32, 32000]            2,592
├─ModuleList: 1-289                      --                        (recursive)
│    └─CausalConv1d: 2-202               [8, 16, 32000]            272
├─ModuleList: 1-288                      --                        (recursive)
│    └─CausalConv1d: 2-203               [8, 32, 32000]            2,592
├─ModuleList: 1-289                      --                        (recursive)
│    └─CausalConv1d: 2-204               [8, 16, 32000]            272
├─ModuleList: 1-288                      --                        (recursive)
│    └─CausalConv1d: 2-205               [8, 32, 32000]            2,592
├─ModuleList: 1-289                      --                        (recursive)
│    └─CausalConv1d: 2-206               [8, 16, 32000]            272
├─ModuleList: 1-288                      --                        (recursive)
│    └─CausalConv1d: 2-207               [8, 32, 32000]            2,592
├─ModuleList: 1-289                      --                        (recursive)
│    └─CausalConv1d: 2-208               [8, 16, 32000]            272
├─ModuleList: 1-288                      --                        (recursive)
│    └─CausalConv1d: 2-209               [8, 32, 32000]            2,592
├─ModuleList: 1-289                      --                        (recursive)
│    └─CausalConv1d: 2-210               [8, 16, 32000]            272
├─ModuleList: 1-288                      --                        (recursive)
│    └─CausalConv1d: 2-211               [8, 32, 32000]            2,592
├─ModuleList: 1-289                      --                        (recursive)
│    └─CausalConv1d: 2-212               [8, 16, 32000]            272
├─ModuleList: 1-288                      --                        (recursive)
│    └─CausalConv1d: 2-213               [8, 32, 32000]            2,592
├─ModuleList: 1-289                      --                        (recursive)
│    └─CausalConv1d: 2-214               [8, 16, 32000]            272
├─ModuleList: 1-288                      --                        (recursive)
│    └─CausalConv1d: 2-215               [8, 32, 32000]            2,592
├─ModuleList: 1-289                      --                        (recursive)
│    └─CausalConv1d: 2-216               [8, 16, 32000]            272
├─ModuleList: 1-288                      --                        (recursive)
│    └─CausalConv1d: 2-217               [8, 32, 32000]            2,592
├─ModuleList: 1-289                      --                        (recursive)
│    └─CausalConv1d: 2-218               [8, 16, 32000]            272
├─ModuleList: 1-288                      --                        (recursive)
│    └─CausalConv1d: 2-219               [8, 32, 32000]            2,592
├─ModuleList: 1-289                      --                        (recursive)
│    └─CausalConv1d: 2-220               [8, 16, 32000]            272
├─ModuleList: 1-288                      --                        (recursive)
│    └─CausalConv1d: 2-221               [8, 32, 32000]            2,592
├─ModuleList: 1-289                      --                        (recursive)
│    └─CausalConv1d: 2-222               [8, 16, 32000]            272
├─ModuleList: 1-288                      --                        (recursive)
│    └─CausalConv1d: 2-223               [8, 32, 32000]            2,592
├─ModuleList: 1-289                      --                        (recursive)
│    └─CausalConv1d: 2-224               [8, 16, 32000]            272
├─ModuleList: 1-288                      --                        (recursive)
│    └─CausalConv1d: 2-225               [8, 32, 32000]            2,592
├─ModuleList: 1-289                      --                        (recursive)
│    └─CausalConv1d: 2-226               [8, 16, 32000]            272
├─ModuleList: 1-288                      --                        (recursive)
│    └─CausalConv1d: 2-227               [8, 32, 32000]            2,592
├─ModuleList: 1-289                      --                        (recursive)
│    └─CausalConv1d: 2-228               [8, 16, 32000]            272
├─ModuleList: 1-288                      --                        (recursive)
│    └─CausalConv1d: 2-229               [8, 32, 32000]            2,592
├─ModuleList: 1-289                      --                        (recursive)
│    └─CausalConv1d: 2-230               [8, 16, 32000]            272
├─ModuleList: 1-288                      --                        (recursive)
│    └─CausalConv1d: 2-231               [8, 32, 32000]            2,592
├─ModuleList: 1-289                      --                        (recursive)
│    └─CausalConv1d: 2-232               [8, 16, 32000]            272
├─ModuleList: 1-288                      --                        (recursive)
│    └─CausalConv1d: 2-233               [8, 32, 32000]            2,592
├─ModuleList: 1-289                      --                        (recursive)
│    └─CausalConv1d: 2-234               [8, 16, 32000]            272
├─ModuleList: 1-288                      --                        (recursive)
│    └─CausalConv1d: 2-235               [8, 32, 32000]            2,592
├─ModuleList: 1-289                      --                        (recursive)
│    └─CausalConv1d: 2-236               [8, 16, 32000]            272
├─ModuleList: 1-288                      --                        (recursive)
│    └─CausalConv1d: 2-237               [8, 32, 32000]            2,592
├─ModuleList: 1-289                      --                        (recursive)
│    └─CausalConv1d: 2-238               [8, 16, 32000]            272
├─ModuleList: 1-288                      --                        (recursive)
│    └─CausalConv1d: 2-239               [8, 32, 32000]            2,592
├─ModuleList: 1-289                      --                        (recursive)
│    └─CausalConv1d: 2-240               [8, 16, 32000]            272
├─ModuleList: 1-288                      --                        (recursive)
│    └─CausalConv1d: 2-241               [8, 32, 32000]            2,592
├─ModuleList: 1-289                      --                        (recursive)
│    └─CausalConv1d: 2-242               [8, 16, 32000]            272
├─ModuleList: 1-288                      --                        (recursive)
│    └─CausalConv1d: 2-243               [8, 32, 32000]            2,592
├─ModuleList: 1-289                      --                        (recursive)
│    └─CausalConv1d: 2-244               [8, 16, 32000]            272
├─ModuleList: 1-288                      --                        (recursive)
│    └─CausalConv1d: 2-245               [8, 32, 32000]            2,592
├─ModuleList: 1-289                      --                        (recursive)
│    └─CausalConv1d: 2-246               [8, 16, 32000]            272
├─ModuleList: 1-288                      --                        (recursive)
│    └─CausalConv1d: 2-247               [8, 32, 32000]            2,592
├─ModuleList: 1-289                      --                        (recursive)
│    └─CausalConv1d: 2-248               [8, 16, 32000]            272
├─ModuleList: 1-288                      --                        (recursive)
│    └─CausalConv1d: 2-249               [8, 32, 32000]            2,592
├─ModuleList: 1-289                      --                        (recursive)
│    └─CausalConv1d: 2-250               [8, 16, 32000]            272
├─ModuleList: 1-288                      --                        (recursive)
│    └─CausalConv1d: 2-251               [8, 32, 32000]            2,592
├─ModuleList: 1-289                      --                        (recursive)
│    └─CausalConv1d: 2-252               [8, 16, 32000]            272
├─ModuleList: 1-288                      --                        (recursive)
│    └─CausalConv1d: 2-253               [8, 32, 32000]            2,592
├─ModuleList: 1-289                      --                        (recursive)
│    └─CausalConv1d: 2-254               [8, 16, 32000]            272
├─ModuleList: 1-288                      --                        (recursive)
│    └─CausalConv1d: 2-255               [8, 32, 32000]            2,592
├─ModuleList: 1-289                      --                        (recursive)
│    └─CausalConv1d: 2-256               [8, 16, 32000]            272
├─ModuleList: 1-288                      --                        (recursive)
│    └─CausalConv1d: 2-257               [8, 32, 32000]            2,592
├─ModuleList: 1-289                      --                        (recursive)
│    └─CausalConv1d: 2-258               [8, 16, 32000]            272
├─ModuleList: 1-288                      --                        (recursive)
│    └─CausalConv1d: 2-259               [8, 32, 32000]            2,592
├─ModuleList: 1-289                      --                        (recursive)
│    └─CausalConv1d: 2-260               [8, 16, 32000]            272
├─ModuleList: 1-288                      --                        (recursive)
│    └─CausalConv1d: 2-261               [8, 32, 32000]            2,592
├─ModuleList: 1-289                      --                        (recursive)
│    └─CausalConv1d: 2-262               [8, 16, 32000]            272
├─ModuleList: 1-288                      --                        (recursive)
│    └─CausalConv1d: 2-263               [8, 32, 32000]            2,592
├─ModuleList: 1-289                      --                        (recursive)
│    └─CausalConv1d: 2-264               [8, 16, 32000]            272
├─ModuleList: 1-288                      --                        (recursive)
│    └─CausalConv1d: 2-265               [8, 32, 32000]            2,592
├─ModuleList: 1-289                      --                        (recursive)
│    └─CausalConv1d: 2-266               [8, 16, 32000]            272
├─ModuleList: 1-288                      --                        (recursive)
│    └─CausalConv1d: 2-267               [8, 32, 32000]            2,592
├─ModuleList: 1-289                      --                        (recursive)
│    └─CausalConv1d: 2-268               [8, 16, 32000]            272
├─ModuleList: 1-288                      --                        (recursive)
│    └─CausalConv1d: 2-269               [8, 32, 32000]            2,592
├─ModuleList: 1-289                      --                        (recursive)
│    └─CausalConv1d: 2-270               [8, 16, 32000]            272
├─ModuleList: 1-288                      --                        (recursive)
│    └─CausalConv1d: 2-271               [8, 32, 32000]            2,592
├─ModuleList: 1-289                      --                        (recursive)
│    └─CausalConv1d: 2-272               [8, 16, 32000]            272
├─ModuleList: 1-288                      --                        (recursive)
│    └─CausalConv1d: 2-273               [8, 32, 32000]            2,592
├─ModuleList: 1-289                      --                        (recursive)
│    └─CausalConv1d: 2-274               [8, 16, 32000]            272
├─ModuleList: 1-288                      --                        (recursive)
│    └─CausalConv1d: 2-275               [8, 32, 32000]            2,592
├─ModuleList: 1-289                      --                        (recursive)
│    └─CausalConv1d: 2-276               [8, 16, 32000]            272
├─ModuleList: 1-288                      --                        (recursive)
│    └─CausalConv1d: 2-277               [8, 32, 32000]            2,592
├─ModuleList: 1-289                      --                        (recursive)
│    └─CausalConv1d: 2-278               [8, 16, 32000]            272
├─ModuleList: 1-288                      --                        (recursive)
│    └─CausalConv1d: 2-279               [8, 32, 32000]            2,592
├─ModuleList: 1-289                      --                        (recursive)
│    └─CausalConv1d: 2-280               [8, 16, 32000]            272
├─ModuleList: 1-288                      --                        (recursive)
│    └─CausalConv1d: 2-281               [8, 32, 32000]            2,592
├─ModuleList: 1-289                      --                        (recursive)
│    └─CausalConv1d: 2-282               [8, 16, 32000]            272
├─ModuleList: 1-288                      --                        (recursive)
│    └─CausalConv1d: 2-283               [8, 32, 32000]            2,592
├─ModuleList: 1-289                      --                        (recursive)
│    └─CausalConv1d: 2-284               [8, 16, 32000]            272
├─ModuleList: 1-288                      --                        (recursive)
│    └─CausalConv1d: 2-285               [8, 32, 32000]            2,592
├─ModuleList: 1-289                      --                        (recursive)
│    └─CausalConv1d: 2-286               [8, 16, 32000]            272
├─ModuleList: 1-288                      --                        (recursive)
│    └─CausalConv1d: 2-287               [8, 32, 32000]            2,592
├─ModuleList: 1-289                      --                        (recursive)
│    └─CausalConv1d: 2-288               [8, 16, 32000]            272
├─Conv1d: 1-290                          [8, 1, 32000]             2,305
==========================================================================================
Total params: 414,753
Trainable params: 414,753
Non-trainable params: 0
Total mult-adds (G): 106.18
==========================================================================================
Input size (MB): 1.02
Forward/backward pass size (MB): 14190.59
Params size (MB): 1.66
Estimated Total Size (MB): 14193.28
…
Forward/backward pass size (MB): 67.58
Params size (MB): 0.05
Estimated Total Size (MB): 68.66
==========================================================================================

Configuration name: TCN-BL
Model name: TCN-BL_50_8_0.001_20230706-181150
Receptive field: 88889 samples or 5555.6 ms
Number of parameters: 32268
==========================================================================================
Layer (type:depth-idx)                   Output Shape              Param #
==========================================================================================
TCN                                      [8, 1, 32000]             --
├─ModuleList: 1-1                        --                        --
│    └─TCNBlock: 2-1                     [8, 32, 32000]            --
│    │    └─Conv1d: 3-1                  [8, 32, 32000]            320
│    │    └─FiLM: 3-2                    [8, 32, 32000]            192
│    │    └─PReLU: 3-3                   [8, 32, 32000]            1
│    │    └─Conv1d: 3-4                  [8, 32, 32000]            32
│    └─TCNBlock: 2-2                     [8, 32, 32000]            --
│    │    └─Conv1d: 3-5                  [8, 32, 32000]            9,248
│    │    └─FiLM: 3-6                    [8, 32, 32000]            192
│    │    └─PReLU: 3-7                   [8, 32, 32000]            1
│    │    └─Conv1d: 3-8                  [8, 32, 32000]            1,024
│    └─TCNBlock: 2-3                     [8, 32, 32000]            --
│    │    └─Conv1d: 3-9                  [8, 32, 32000]            9,248
│    │    └─FiLM: 3-10                   [8, 32, 32000]            192
│    │    └─PReLU: 3-11                  [8, 32, 32000]            1
│    │    └─Conv1d: 3-12                 [8, 32, 32000]            1,024
│    └─TCNBlock: 2-4                     [8, 32, 32000]            --
│    │    └─Conv1d: 3-13                 [8, 32, 32000]            9,248
│    │    └─FiLM: 3-14                   [8, 32, 32000]            192
│    │    └─PReLU: 3-15                  [8, 32, 32000]            1
│    │    └─Conv1d: 3-16                 [8, 32, 32000]            1,024
│    └─TCNBlock: 2-5                     [8, 1, 32000]             --
│    │    └─Conv1d: 3-17                 [8, 1, 32000]             289
│    │    └─FiLM: 3-18                   [8, 1, 32000]             6
│    │    └─PReLU: 3-19                  [8, 1, 32000]             1
│    │    └─Conv1d: 3-20                 [8, 1, 32000]             32
==========================================================================================
Total params: 32,268
Trainable params: 32,268
Non-trainable params: 0
Total mult-adds (G): 8.06
==========================================================================================
Input size (MB): 1.02
Forward/backward pass size (MB): 792.58
Params size (MB): 0.13
Estimated Total Size (MB): 793.73
==========================================================================================

Configuration name: LSTM-BL
Model name: LSTM-BL_100_8_0.001_20230707-185630

Number of parameters: 12961
==========================================================================================
Layer (type:depth-idx)                   Output Shape              Param #
==========================================================================================
LSTM                                     [8, 1, 32000]             --
├─LSTM: 1-1                              [32000, 8, 32]            12,928
├─Linear: 1-2                            [32000, 8, 1]             33
├─Tanh: 1-3                              [32000, 8, 1]             --
==========================================================================================
Total params: 12,961
Trainable params: 12,961
Non-trainable params: 0
Total mult-adds (G): 3.31
==========================================================================================
Input size (MB): 1.02
Forward/backward pass size (MB): 67.58
Params size (MB): 0.05
Estimated Total Size (MB): 68.66
==========================================================================================

Configuration name: LSTM-BL
Model name: LSTM-BL_100_8_0.001_20230707-212809

Number of parameters: 12961
==========================================================================================
Layer (type:depth-idx)                   Output Shape              Param #
==========================================================================================
LSTM                                     [8, 1, 32000]             --
├─LSTM: 1-1                              [32000, 8, 32]            12,928
├─Linear: 1-2                            [32000, 8, 1]             33
├─Tanh: 1-3                              [32000, 8, 1]             --
==========================================================================================
Total params: 12,961
Trainable params: 12,961
Non-trainable params: 0
Total mult-adds (G): 3.31
==========================================================================================
Input size (MB): 1.02
Forward/backward pass size (MB): 67.58
Params size (MB): 0.05
Estimated Total Size (MB): 68.66
==========================================================================================
…
Input size (MB): 1.02
Forward/backward pass size (MB): 14190.59
Params size (MB): 1.66
Estimated Total Size (MB): 14193.28
==========================================================================================

Configuration name: BiLSTM-96
Model name: BiLSTM-96_50_8_0.001_20230708-003433

Number of parameters: 76225
==========================================================================================
Layer (type:depth-idx)                   Output Shape              Param #
==========================================================================================
BiLSTM                                   [8, 1, 32000]             --
├─LSTM: 1-1                              [32000, 8, 192]           76,032
├─Linear: 1-2                            [32000, 8, 1]             193
==========================================================================================
Total params: 76,225
Trainable params: 76,225
Non-trainable params: 0
Total mult-adds (G): 19.47
==========================================================================================
Input size (MB): 1.02
Forward/backward pass size (MB): 395.26
Params size (MB): 0.30
Estimated Total Size (MB): 396.59
==========================================================================================

Configuration name: BiLSTM
Model name: BiLSTM_50_8_0.001_20230707-221239

Number of parameters: 133761
==========================================================================================
Layer (type:depth-idx)                   Output Shape              Param #
==========================================================================================
BiLSTM                                   [8, 1, 32000]             --
├─LSTM: 1-1                              [32000, 8, 128]           133,632
├─Linear: 1-2                            [32000, 8, 1]             129
==========================================================================================
Total params: 133,761
Trainable params: 133,761
Non-trainable params: 0
Total mult-adds (G): 34.21
==========================================================================================
Input size (MB): 1.02
Forward/backward pass size (MB): 264.19
Params size (MB): 0.54
Estimated Total Size (MB): 265.75
…
Forward/backward pass size (MB): 2476.03
Params size (MB): 0.15
Estimated Total Size (MB): 2477.20
==========================================================================================

Configuration name: TCN-4k
Model name: TCN-4k_50_8_0.001_20230706-190005
Receptive field: 66667 samples or 4166.7 ms
Number of parameters: 101132
==========================================================================================
Layer (type:depth-idx)                   Output Shape              Param #
==========================================================================================
TCN                                      [8, 1, 32000]             --
├─ModuleList: 1-1                        --                        --
│    └─TCNBlock: 2-1                     [8, 64, 32000]            --
│    │    └─Conv1d: 3-1                  [8, 64, 32000]            512
│    │    └─FiLM: 3-2                    [8, 64, 32000]            384
│    │    └─PReLU: 3-3                   [8, 64, 32000]            1
│    │    └─Conv1d: 3-4                  [8, 64, 32000]            64
│    └─TCNBlock: 2-2                     [8, 64, 32000]            --
│    │    └─Conv1d: 3-5                  [8, 64, 32000]            28,736
│    │    └─FiLM: 3-6                    [8, 64, 32000]            384
│    │    └─PReLU: 3-7                   [8, 64, 32000]            1
│    │    └─Conv1d: 3-8                  [8, 64, 32000]            4,096
│    └─TCNBlock: 2-3                     [8, 64, 32000]            --
│    │    └─Conv1d: 3-9                  [8, 64, 32000]            28,736
│    │    └─FiLM: 3-10                   [8, 64, 32000]            384
│    │    └─PReLU: 3-11                  [8, 64, 32000]            1
│    │    └─Conv1d: 3-12                 [8, 64, 32000]            4,096
│    └─TCNBlock: 2-4                     [8, 64, 32000]            --
│    │    └─Conv1d: 3-13                 [8, 64, 32000]            28,736
│    │    └─FiLM: 3-14                   [8, 64, 32000]            384
│    │    └─PReLU: 3-15                  [8, 64, 32000]            1
│    │    └─Conv1d: 3-16                 [8, 64, 32000]            4,096
│    └─TCNBlock: 2-5                     [8, 1, 32000]             --
│    │    └─Conv1d: 3-17                 [8, 1, 32000]             449
│    │    └─FiLM: 3-18                   [8, 1, 32000]             6
│    │    └─PReLU: 3-19                  [8, 1, 32000]             1
│    │    └─Conv1d: 3-20                 [8, 1, 32000]             64
==========================================================================================
Total params: 101,132
Trainable params: 101,132
Non-trainable params: 0
Total mult-adds (G): 25.49
==========================================================================================
Input size (MB): 1.02
Forward/backward pass size (MB): 1579.01
Params size (MB): 0.40
Estimated Total Size (MB): 1580.44
==========================================================================================

Configuration name: LSTM-Var
Model name: LSTM-Var_100_8_0.001_20230707-203545

Number of parameters: 17217
==========================================================================================
Layer (type:depth-idx)                   Output Shape              Param #
==========================================================================================
LSTM                                     [8, 1, 32000]             --
├─LSTM: 1-1                              [32000, 8, 64]            17,152
├─Linear: 1-2                            [32000, 8, 1]             65
├─Tanh: 1-3                              [32000, 8, 1]             --
==========================================================================================
Total params: 17,217
Trainable params: 17,217
Non-trainable params: 0
Total mult-adds (G): 4.39
==========================================================================================
Input size (MB): 1.02
Forward/backward pass size (MB): 133.12
Params size (MB): 0.07
Estimated Total Size (MB): 134.21
==========================================================================================
…
Forward/backward pass size (MB): 2476.03
Params size (MB): 0.15
Estimated Total Size (MB): 2477.20
==========================================================================================

Configuration name: TCN-2k
Model name: TCN-2k_50_8_0.001_20230707-002857
Receptive field: 37449 samples or 2340.6 ms
Number of parameters: 32268
==========================================================================================
Layer (type:depth-idx)                   Output Shape              Param #
==========================================================================================
TCN                                      [8, 1, 32000]             --
├─ModuleList: 1-1                        --                        --
│    └─TCNBlock: 2-1                     [8, 32, 32000]            --
│    │    └─Conv1d: 3-1                  [8, 32, 32000]            320
│    │    └─FiLM: 3-2                    [8, 32, 32000]            192
│    │    └─PReLU: 3-3                   [8, 32, 32000]            1
│    │    └─Conv1d: 3-4                  [8, 32, 32000]            32
│    └─TCNBlock: 2-2                     [8, 32, 32000]            --
│    │    └─Conv1d: 3-5                  [8, 32, 32000]            9,248
│    │    └─FiLM: 3-6                    [8, 32, 32000]            192
│    │    └─PReLU: 3-7                   [8, 32, 32000]            1
│    │    └─Conv1d: 3-8                  [8, 32, 32000]            1,024
│    └─TCNBlock: 2-3                     [8, 32, 32000]            --
│    │    └─Conv1d: 3-9                  [8, 32, 32000]            9,248
│    │    └─FiLM: 3-10                   [8, 32, 32000]            192
│    │    └─PReLU: 3-11                  [8, 32, 32000]            1
│    │    └─Conv1d: 3-12                 [8, 32, 32000]            1,024
│    └─TCNBlock: 2-4                     [8, 32, 32000]            --
│    │    └─Conv1d: 3-13                 [8, 32, 32000]            9,248
│    │    └─FiLM: 3-14                   [8, 32, 32000]            192
│    │    └─PReLU: 3-15                  [8, 32, 32000]            1
│    │    └─Conv1d: 3-16                 [8, 32, 32000]            1,024
│    └─TCNBlock: 2-5                     [8, 1, 32000]             --
│    │    └─Conv1d: 3-17                 [8, 1, 32000]             289
│    │    └─FiLM: 3-18                   [8, 1, 32000]             6
│    │    └─PReLU: 3-19                  [8, 1, 32000]             1
│    │    └─Conv1d: 3-20                 [8, 1, 32000]             32
==========================================================================================
Total params: 32,268
Trainable params: 32,268
Non-trainable params: 0
Total mult-adds (G): 8.06
==========================================================================================
Input size (MB): 1.02
Forward/backward pass size (MB): 792.58
Params size (MB): 0.13
Estimated Total Size (MB): 793.73
==========================================================================================

Configuration name: LSTM-Var
Model name: LSTM-Var_100_8_0.001_20230707-201226

Number of parameters: 12961
==========================================================================================
Layer (type:depth-idx)                   Output Shape              Param #
==========================================================================================
LSTM                                     [8, 1, 32000]             --
├─LSTM: 1-1                              [32000, 8, 32]            12,928
├─Linear: 1-2                            [32000, 8, 1]             33
├─Tanh: 1-3                              [32000, 8, 1]             --
==========================================================================================
Total params: 12,961
Trainable params: 12,961
Non-trainable params: 0
Total mult-adds (G): 3.31
==========================================================================================
Input size (MB): 1.02
Forward/backward pass size (MB): 67.58
Params size (MB): 0.05
Estimated Total Size (MB): 68.66
==========================================================================================
…
Forward/backward pass size (MB): 792.58
Params size (MB): 0.13
Estimated Total Size (MB): 793.73
==========================================================================================

Configuration name: TCN-1
Model name: TCN-1_50_8_0.001_20230706-182103
Receptive field: 88889 samples or 5555.6 ms
Number of parameters: 125964
==========================================================================================
Layer (type:depth-idx)                   Output Shape              Param #
==========================================================================================
TCN                                      [8, 1, 32000]             --
├─ModuleList: 1-1                        --                        --
│    └─TCNBlock: 2-1                     [8, 64, 32000]            --
│    │    └─Conv1d: 3-1                  [8, 64, 32000]            640
│    │    └─FiLM: 3-2                    [8, 64, 32000]            384
│    │    └─PReLU: 3-3                   [8, 64, 32000]            1
│    │    └─Conv1d: 3-4                  [8, 64, 32000]            64
│    └─TCNBlock: 2-2                     [8, 64, 32000]            --
│    │    └─Conv1d: 3-5                  [8, 64, 32000]            36,928
│    │    └─FiLM: 3-6                    [8, 64, 32000]            384
│    │    └─PReLU: 3-7                   [8, 64, 32000]            1
│    │    └─Conv1d: 3-8                  [8, 64, 32000]            4,096
│    └─TCNBlock: 2-3                     [8, 64, 32000]            --
│    │    └─Conv1d: 3-9                  [8, 64, 32000]            36,928
│    │    └─FiLM: 3-10                   [8, 64, 32000]            384
│    │    └─PReLU: 3-11                  [8, 64, 32000]            1
│    │    └─Conv1d: 3-12                 [8, 64, 32000]            4,096
│    └─TCNBlock: 2-4                     [8, 64, 32000]            --
│    │    └─Conv1d: 3-13                 [8, 64, 32000]            36,928
│    │    └─FiLM: 3-14                   [8, 64, 32000]            384
│    │    └─PReLU: 3-15                  [8, 64, 32000]            1
│    │    └─Conv1d: 3-16                 [8, 64, 32000]            4,096
│    └─TCNBlock: 2-5                     [8, 1, 32000]             --
│    │    └─Conv1d: 3-17                 [8, 1, 32000]             577
│    │    └─FiLM: 3-18                   [8, 1, 32000]             6
│    │    └─PReLU: 3-19                  [8, 1, 32000]             1
│    │    └─Conv1d: 3-20                 [8, 1, 32000]             64
==========================================================================================
Total params: 125,964
Trainable params: 125,964
Non-trainable params: 0
Total mult-adds (G): 31.85
==========================================================================================
Input size (MB): 1.02
Forward/backward pass size (MB): 1579.01
Params size (MB): 0.50
Estimated Total Size (MB): 1580.54
…
Forward/backward pass size (MB): 792.58
Params size (MB): 0.13
Estimated Total Size (MB): 793.73
==========================================================================================

Configuration name: WN-1k
Model name: WN-1k_50_8_0.001_20230706-212305
Receptive field: 54 samples or 3.4 ms
Number of parameters: 8081
==========================================================================================
Layer (type:depth-idx)                   Output Shape              Param #
==========================================================================================
WaveNet                                  [8, 1, 32000]             --
├─CausalConv1d: 1-1                      [8, 8, 32000]             16
├─ModuleList: 1-72                       --                        (recursive)
│    └─CausalConv1d: 2-1                 [8, 16, 32000]            144
├─ModuleList: 1-73                       --                        (recursive)
│    └─CausalConv1d: 2-2                 [8, 8, 32000]             72
├─ModuleList: 1-72                       --                        (recursive)
│    └─CausalConv1d: 2-3                 [8, 16, 32000]            144
├─ModuleList: 1-73                       --                        (recursive)
│    └─CausalConv1d: 2-4                 [8, 8, 32000]             72
├─ModuleList: 1-72                       --                        (recursive)
│    └─CausalConv1d: 2-5                 [8, 16, 32000]            144
├─ModuleList: 1-73                       --                        (recursive)
│    └─CausalConv1d: 2-6                 [8, 8, 32000]             72
├─ModuleList: 1-72                       --                        (recursive)
│    └─CausalConv1d: 2-7                 [8, 16, 32000]            144
├─ModuleList: 1-73                       --                        (recursive)
│    └─CausalConv1d: 2-8                 [8, 8, 32000]             72
├─ModuleList: 1-72                       --                        (recursive)
│    └─CausalConv1d: 2-9                 [8, 16, 32000]            144
├─ModuleList: 1-73                       --                        (recursive)
│    └─CausalConv1d: 2-10                [8, 8, 32000]             72
├─ModuleList: 1-72                       --                        (recursive)
│    └─CausalConv1d: 2-11                [8, 16, 32000]            144
├─ModuleList: 1-73                       --                        (recursive)
│    └─CausalConv1d: 2-12                [8, 8, 32000]             72
├─ModuleList: 1-72                       --                        (recursive)
│    └─CausalConv1d: 2-13                [8, 16, 32000]            144
├─ModuleList: 1-73                       --                        (recursive)
│    └─CausalConv1d: 2-14                [8, 8, 32000]             72
├─ModuleList: 1-72                       --                        (recursive)
│    └─CausalConv1d: 2-15                [8, 16, 32000]            144
├─ModuleList: 1-73                       --                        (recursive)
│    └─CausalConv1d: 2-16                [8, 8, 32000]             72
├─ModuleList: 1-72                       --                        (recursive)
│    └─CausalConv1d: 2-17                [8, 16, 32000]            144
├─ModuleList: 1-73                       --                        (recursive)
│    └─CausalConv1d: 2-18                [8, 8, 32000]             72
├─ModuleList: 1-72                       --                        (recursive)
│    └─CausalConv1d: 2-19                [8, 16, 32000]            144
├─ModuleList: 1-73                       --                        (recursive)
│    └─CausalConv1d: 2-20                [8, 8, 32000]             72
├─ModuleList: 1-72                       --                        (recursive)
│    └─CausalConv1d: 2-21                [8, 16, 32000]            144
├─ModuleList: 1-73                       --                        (recursive)
│    └─CausalConv1d: 2-22                [8, 8, 32000]             72
├─ModuleList: 1-72                       --                        (recursive)
│    └─CausalConv1d: 2-23                [8, 16, 32000]            144
├─ModuleList: 1-73                       --                        (recursive)
│    └─CausalConv1d: 2-24                [8, 8, 32000]             72
├─ModuleList: 1-72                       --                        (recursive)
│    └─CausalConv1d: 2-25                [8, 16, 32000]            144
├─ModuleList: 1-73                       --                        (recursive)
│    └─CausalConv1d: 2-26                [8, 8, 32000]             72
├─ModuleList: 1-72                       --                        (recursive)
│    └─CausalConv1d: 2-27                [8, 16, 32000]            144
├─ModuleList: 1-73                       --                        (recursive)
│    └─CausalConv1d: 2-28                [8, 8, 32000]             72
├─ModuleList: 1-72                       --                        (recursive)
│    └─CausalConv1d: 2-29                [8, 16, 32000]            144
├─ModuleList: 1-73                       --                        (recursive)
│    └─CausalConv1d: 2-30                [8, 8, 32000]             72
├─ModuleList: 1-72                       --                        (recursive)
│    └─CausalConv1d: 2-31                [8, 16, 32000]            144
├─ModuleList: 1-73                       --                        (recursive)
│    └─CausalConv1d: 2-32                [8, 8, 32000]             72
├─ModuleList: 1-72                       --                        (recursive)
│    └─CausalConv1d: 2-33                [8, 16, 32000]            144
├─ModuleList: 1-73                       --                        (recursive)
│    └─CausalConv1d: 2-34                [8, 8, 32000]             72
├─ModuleList: 1-72                       --                        (recursive)
│    └─CausalConv1d: 2-35                [8, 16, 32000]            144
├─ModuleList: 1-73                       --                        (recursive)
│    └─CausalConv1d: 2-36                [8, 8, 32000]             72
├─ModuleList: 1-72                       --                        (recursive)
│    └─CausalConv1d: 2-37                [8, 16, 32000]            144
├─ModuleList: 1-73                       --                        (recursive)
│    └─CausalConv1d: 2-38                [8, 8, 32000]             72
├─ModuleList: 1-72                       --                        (recursive)
│    └─CausalConv1d: 2-39                [8, 16, 32000]            144
├─ModuleList: 1-73                       --                        (recursive)
│    └─CausalConv1d: 2-40                [8, 8, 32000]             72
├─ModuleList: 1-72                       --                        (recursive)
│    └─CausalConv1d: 2-41                [8, 16, 32000]            144
├─ModuleList: 1-73                       --                        (recursive)
│    └─CausalConv1d: 2-42                [8, 8, 32000]             72
├─ModuleList: 1-72                       --                        (recursive)
│    └─CausalConv1d: 2-43                [8, 16, 32000]            144
├─ModuleList: 1-73                       --                        (recursive)
│    └─CausalConv1d: 2-44                [8, 8, 32000]             72
├─ModuleList: 1-72                       --                        (recursive)
│    └─CausalConv1d: 2-45                [8, 16, 32000]            144
├─ModuleList: 1-73                       --                        (recursive)
│    └─CausalConv1d: 2-46                [8, 8, 32000]             72
├─ModuleList: 1-72                       --                        (recursive)
│    └─CausalConv1d: 2-47                [8, 16, 32000]            144
├─ModuleList: 1-73                       --                        (recursive)
│    └─CausalConv1d: 2-48                [8, 8, 32000]             72
├─ModuleList: 1-72                       --                        (recursive)
│    └─CausalConv1d: 2-49                [8, 16, 32000]            144
├─ModuleList: 1-73                       --                        (recursive)
│    └─CausalConv1d: 2-50                [8, 8, 32000]             72
├─ModuleList: 1-72                       --                        (recursive)
│    └─CausalConv1d: 2-51                [8, 16, 32000]            144
├─ModuleList: 1-73                       --                        (recursive)
│    └─CausalConv1d: 2-52                [8, 8, 32000]             72
├─ModuleList: 1-72                       --                        (recursive)
│    └─CausalConv1d: 2-53                [8, 16, 32000]            144
├─ModuleList: 1-73                       --                        (recursive)
│    └─CausalConv1d: 2-54                [8, 8, 32000]             72
├─ModuleList: 1-72                       --                        (recursive)
│    └─CausalConv1d: 2-55                [8, 16, 32000]            144
├─ModuleList: 1-73                       --                        (recursive)
│    └─CausalConv1d: 2-56                [8, 8, 32000]             72
├─ModuleList: 1-72                       --                        (recursive)
│    └─CausalConv1d: 2-57                [8, 16, 32000]            144
├─ModuleList: 1-73                       --                        (recursive)
│    └─CausalConv1d: 2-58                [8, 8, 32000]             72
├─ModuleList: 1-72                       --                        (recursive)
│    └─CausalConv1d: 2-59                [8, 16, 32000]            144
├─ModuleList: 1-73                       --                        (recursive)
│    └─CausalConv1d: 2-60                [8, 8, 32000]             72
├─ModuleList: 1-72                       --                        (recursive)
│    └─CausalConv1d: 2-61                [8, 16, 32000]            144
├─ModuleList: 1-73                       --                        (recursive)
│    └─CausalConv1d: 2-62                [8, 8, 32000]             72
├─ModuleList: 1-72                       --                        (recursive)
│    └─CausalConv1d: 2-63                [8, 16, 32000]            144
├─ModuleList: 1-73                       --                        (recursive)
│    └─CausalConv1d: 2-64                [8, 8, 32000]             72
├─ModuleList: 1-72                       --                        (recursive)
│    └─CausalConv1d: 2-65                [8, 16, 32000]            144
├─ModuleList: 1-73                       --                        (recursive)
│    └─CausalConv1d: 2-66                [8, 8, 32000]             72
├─ModuleList: 1-72                       --                        (recursive)
│    └─CausalConv1d: 2-67                [8, 16, 32000]            144
├─ModuleList: 1-73                       --                        (recursive)
│    └─CausalConv1d: 2-68                [8, 8, 32000]             72
├─ModuleList: 1-72                       --                        (recursive)
│    └─CausalConv1d: 2-69                [8, 16, 32000]            144
├─ModuleList: 1-73                       --                        (recursive)
│    └─CausalConv1d: 2-70                [8, 8, 32000]             72
├─ModuleList: 1-72                       --                        (recursive)
│    └─CausalConv1d: 2-71                [8, 16, 32000]            144
├─ModuleList: 1-73                       --                        (recursive)
│    └─CausalConv1d: 2-72                [8, 8, 32000]             72
├─Conv1d: 1-74                           [8, 1, 32000]             289
==========================================================================================
Total params: 8,081
Trainable params: 8,081
Non-trainable params: 0
Total mult-adds (G): 2.07
==========================================================================================
Input size (MB): 1.02
Forward/backward pass size (MB): 1787.90
Params size (MB): 0.03
Estimated Total Size (MB): 1788.96
==========================================================================================

Configuration name: LSTM-Var
Model name: LSTM-Var_100_8_0.001_20230707-205323

Number of parameters: 17217
==========================================================================================
Layer (type:depth-idx)                   Output Shape              Param #
==========================================================================================
LSTM                                     [8, 1, 32000]             --
├─LSTM: 1-1                              [32000, 8, 64]            17,152
├─Linear: 1-2                            [32000, 8, 1]             65
├─Tanh: 1-3                              [32000, 8, 1]             --
==========================================================================================
Total params: 17,217
Trainable params: 17,217
Non-trainable params: 0
Total mult-adds (G): 4.39
==========================================================================================
Input size (MB): 1.02
Forward/backward pass size (MB): 133.12
Params size (MB): 0.07
Estimated Total Size (MB): 134.21
==========================================================================================
…
Forward/backward pass size (MB): 792.58
Params size (MB): 0.13
Estimated Total Size (MB): 793.73
==========================================================================================

Configuration name: TCN-BL
Model name: TCN-BL_50_8_0.001_20230706-145330
Receptive field: 88889 samples or 5555.6 ms
Number of parameters: 32268
==========================================================================================
Layer (type:depth-idx)                   Output Shape              Param #
==========================================================================================
TCN                                      [8, 1, 32000]             --
├─ModuleList: 1-1                        --                        --
│    └─TCNBlock: 2-1                     [8, 32, 32000]            --
│    │    └─Conv1d: 3-1                  [8, 32, 32000]            320
│    │    └─FiLM: 3-2                    [8, 32, 32000]            192
│    │    └─PReLU: 3-3                   [8, 32, 32000]            1
│    │    └─Conv1d: 3-4                  [8, 32, 32000]            32
│    └─TCNBlock: 2-2                     [8, 32, 32000]            --
│    │    └─Conv1d: 3-5                  [8, 32, 32000]            9,248
│    │    └─FiLM: 3-6                    [8, 32, 32000]            192
│    │    └─PReLU: 3-7                   [8, 32, 32000]            1
│    │    └─Conv1d: 3-8                  [8, 32, 32000]            1,024
│    └─TCNBlock: 2-3                     [8, 32, 32000]            --
│    │    └─Conv1d: 3-9                  [8, 32, 32000]            9,248
│    │    └─FiLM: 3-10                   [8, 32, 32000]            192
│    │    └─PReLU: 3-11                  [8, 32, 32000]            1
│    │    └─Conv1d: 3-12                 [8, 32, 32000]            1,024
│    └─TCNBlock: 2-4                     [8, 32, 32000]            --
│    │    └─Conv1d: 3-13                 [8, 32, 32000]            9,248
│    │    └─FiLM: 3-14                   [8, 32, 32000]            192
│    │    └─PReLU: 3-15                  [8, 32, 32000]            1
│    │    └─Conv1d: 3-16                 [8, 32, 32000]            1,024
│    └─TCNBlock: 2-5                     [8, 1, 32000]             --
│    │    └─Conv1d: 3-17                 [8, 1, 32000]             289
│    │    └─FiLM: 3-18                   [8, 1, 32000]             6
│    │    └─PReLU: 3-19                  [8, 1, 32000]             1
│    │    └─Conv1d: 3-20                 [8, 1, 32000]             32
==========================================================================================
Total params: 32,268
Trainable params: 32,268
Non-trainable params: 0
Total mult-adds (G): 8.06
==========================================================================================
Input size (MB): 1.02
Forward/backward pass size (MB): 792.58
Params size (MB): 0.13
Estimated Total Size (MB): 793.73
==========================================================================================

Configuration name: LSTM-4
Model name: LSTM-4_100_8_0.001_20230707-191053

Number of parameters: 29857
==========================================================================================
Layer (type:depth-idx)                   Output Shape              Param #
==========================================================================================
LSTM                                     [8, 1, 32000]             --
├─LSTM: 1-1                              [32000, 8, 32]            29,824
├─Linear: 1-2                            [32000, 8, 1]             33
├─Tanh: 1-3                              [32000, 8, 1]             --
==========================================================================================
Total params: 29,857
Trainable params: 29,857
Non-trainable params: 0
Total mult-adds (G): 7.64
==========================================================================================
Input size (MB): 1.02
Forward/backward pass size (MB): 67.58
Params size (MB): 0.12
Estimated Total Size (MB): 68.73
==========================================================================================

Configuration name: TCN-BL
Model name: TCN-BL_250_8_0.001_20230707-115233
Receptive field: 88889 samples or 5555.6 ms
Number of parameters: 32268
==========================================================================================
Layer (type:depth-idx)                   Output Shape              Param #
==========================================================================================
TCN                                      [8, 1, 32000]             --
├─ModuleList: 1-1                        --                        --
│    └─TCNBlock: 2-1                     [8, 32, 32000]            --
│    │    └─Conv1d: 3-1                  [8, 32, 32000]            320
│    │    └─FiLM: 3-2                    [8, 32, 32000]            192
│    │    └─PReLU: 3-3                   [8, 32, 32000]            1
│    │    └─Conv1d: 3-4                  [8, 32, 32000]            32
│    └─TCNBlock: 2-2                     [8, 32, 32000]            --
│    │    └─Conv1d: 3-5                  [8, 32, 32000]            9,248
│    │    └─FiLM: 3-6                    [8, 32, 32000]            192
│    │    └─PReLU: 3-7                   [8, 32, 32000]            1
│    │    └─Conv1d: 3-8                  [8, 32, 32000]            1,024
│    └─TCNBlock: 2-3                     [8, 32, 32000]            --
│    │    └─Conv1d: 3-9                  [8, 32, 32000]            9,248
│    │    └─FiLM: 3-10                   [8, 32, 32000]            192
│    │    └─PReLU: 3-11                  [8, 32, 32000]            1
│    │    └─Conv1d: 3-12                 [8, 32, 32000]            1,024
│    └─TCNBlock: 2-4                     [8, 32, 32000]            --
│    │    └─Conv1d: 3-13                 [8, 32, 32000]            9,248
│    │    └─FiLM: 3-14                   [8, 32, 32000]            192
│    │    └─PReLU: 3-15                  [8, 32, 32000]            1
│    │    └─Conv1d: 3-16                 [8, 32, 32000]            1,024
│    └─TCNBlock: 2-5                     [8, 1, 32000]             --
│    │    └─Conv1d: 3-17                 [8, 1, 32000]             289
│    │    └─FiLM: 3-18                   [8, 1, 32000]             6
│    │    └─PReLU: 3-19                  [8, 1, 32000]             1
│    │    └─Conv1d: 3-20                 [8, 1, 32000]             32
==========================================================================================
Total params: 32,268
Trainable params: 32,268
Non-trainable params: 0
Total mult-adds (G): 8.06
==========================================================================================
Input size (MB): 1.02
Forward/backward pass size (MB): 792.58
Params size (MB): 0.13
Estimated Total Size (MB): 793.73
==========================================================================================

Configuration name: LSTM-4
Model name: LSTM-4_100_8_0.001_20230707-190129

Number of parameters: 29857
==========================================================================================
Layer (type:depth-idx)                   Output Shape              Param #
==========================================================================================
LSTM                                     [8, 1, 32000]             --
├─LSTM: 1-1                              [32000, 8, 32]            29,824
├─Linear: 1-2                            [32000, 8, 1]             33
├─Tanh: 1-3                              [32000, 8, 1]             --
==========================================================================================
Total params: 29,857
Trainable params: 29,857
Non-trainable params: 0
Total mult-adds (G): 7.64
==========================================================================================
Input size (MB): 1.02
Forward/backward pass size (MB): 67.58
Params size (MB): 0.12
Estimated Total Size (MB): 68.73
==========================================================================================

Configuration name: LSTM-Var
Model name: LSTM-Var_100_8_0.001_20230707-203634

Number of parameters: 17217
==========================================================================================
Layer (type:depth-idx)                   Output Shape              Param #
==========================================================================================
LSTM                                     [8, 1, 32000]             --
├─LSTM: 1-1                              [32000, 8, 64]            17,152
├─Linear: 1-2                            [32000, 8, 1]             65
├─Tanh: 1-3                              [32000, 8, 1]             --
==========================================================================================
Total params: 17,217
Trainable params: 17,217
Non-trainable params: 0
Total mult-adds (G): 4.39
==========================================================================================
Input size (MB): 1.02
Forward/backward pass size (MB): 133.12
Params size (MB): 0.07
Estimated Total Size (MB): 134.21
==========================================================================================

Configuration name: BiLSTM
Model name: BiLSTM_50_8_0.001_20230707-220924

Number of parameters: 133761
==========================================================================================
Layer (type:depth-idx)                   Output Shape              Param #
==========================================================================================
BiLSTM                                   [8, 1, 32000]             --
├─LSTM: 1-1                              [32000, 8, 128]           133,632
├─Linear: 1-2                            [32000, 8, 1]             129
==========================================================================================
Total params: 133,761
Trainable params: 133,761
Non-trainable params: 0
Total mult-adds (G): 34.21
==========================================================================================
Input size (MB): 1.02
Forward/backward pass size (MB): 264.19
Params size (MB): 0.54
Estimated Total Size (MB): 265.75
…
Forward/backward pass size (MB): 792.58
Params size (MB): 0.13
Estimated Total Size (MB): 793.73
==========================================================================================

Configuration name: WN-150
Model name: WN-150_50_8_0.001_20230706-190852
Receptive field: 150 samples or 9.4 ms
Number of parameters: 57633
==========================================================================================
Layer (type:depth-idx)                   Output Shape              Param #
==========================================================================================
WaveNet                                  [8, 1, 32000]             --
├─CausalConv1d: 1-1                      [8, 16, 32000]            32
├─ModuleList: 1-40                       --                        (recursive)
│    └─CausalConv1d: 2-1                 [8, 32, 32000]            2,592
├─ModuleList: 1-41                       --                        (recursive)
│    └─CausalConv1d: 2-2                 [8, 16, 32000]            272
├─ModuleList: 1-40                       --                        (recursive)
│    └─CausalConv1d: 2-3                 [8, 32, 32000]            2,592
├─ModuleList: 1-41                       --                        (recursive)
│    └─CausalConv1d: 2-4                 [8, 16, 32000]            272
├─ModuleList: 1-40                       --                        (recursive)
│    └─CausalConv1d: 2-5                 [8, 32, 32000]            2,592
├─ModuleList: 1-41                       --                        (recursive)
│    └─CausalConv1d: 2-6                 [8, 16, 32000]            272
├─ModuleList: 1-40                       --                        (recursive)
│    └─CausalConv1d: 2-7                 [8, 32, 32000]            2,592
├─ModuleList: 1-41                       --                        (recursive)
│    └─CausalConv1d: 2-8                 [8, 16, 32000]            272
├─ModuleList: 1-40                       --                        (recursive)
│    └─CausalConv1d: 2-9                 [8, 32, 32000]            2,592
├─ModuleList: 1-41                       --                        (recursive)
│    └─CausalConv1d: 2-10                [8, 16, 32000]            272
├─ModuleList: 1-40                       --                        (recursive)
│    └─CausalConv1d: 2-11                [8, 32, 32000]            2,592
├─ModuleList: 1-41                       --                        (recursive)
│    └─CausalConv1d: 2-12                [8, 16, 32000]            272
├─ModuleList: 1-40                       --                        (recursive)
│    └─CausalConv1d: 2-13                [8, 32, 32000]            2,592
├─ModuleList: 1-41                       --                        (recursive)
│    └─CausalConv1d: 2-14                [8, 16, 32000]            272
├─ModuleList: 1-40                       --                        (recursive)
│    └─CausalConv1d: 2-15                [8, 32, 32000]            2,592
├─ModuleList: 1-41                       --                        (recursive)
│    └─CausalConv1d: 2-16                [8, 16, 32000]            272
├─ModuleList: 1-40                       --                        (recursive)
│    └─CausalConv1d: 2-17                [8, 32, 32000]            2,592
├─ModuleList: 1-41                       --                        (recursive)
│    └─CausalConv1d: 2-18                [8, 16, 32000]            272
├─ModuleList: 1-40                       --                        (recursive)
│    └─CausalConv1d: 2-19                [8, 32, 32000]            2,592
├─ModuleList: 1-41                       --                        (recursive)
│    └─CausalConv1d: 2-20                [8, 16, 32000]            272
├─ModuleList: 1-40                       --                        (recursive)
│    └─CausalConv1d: 2-21                [8, 32, 32000]            2,592
├─ModuleList: 1-41                       --                        (recursive)
│    └─CausalConv1d: 2-22                [8, 16, 32000]            272
├─ModuleList: 1-40                       --                        (recursive)
│    └─CausalConv1d: 2-23                [8, 32, 32000]            2,592
├─ModuleList: 1-41                       --                        (recursive)
│    └─CausalConv1d: 2-24                [8, 16, 32000]            272
├─ModuleList: 1-40                       --                        (recursive)
│    └─CausalConv1d: 2-25                [8, 32, 32000]            2,592
├─ModuleList: 1-41                       --                        (recursive)
│    └─CausalConv1d: 2-26                [8, 16, 32000]            272
├─ModuleList: 1-40                       --                        (recursive)
│    └─CausalConv1d: 2-27                [8, 32, 32000]            2,592
├─ModuleList: 1-41                       --                        (recursive)
│    └─CausalConv1d: 2-28                [8, 16, 32000]            272
├─ModuleList: 1-40                       --                        (recursive)
│    └─CausalConv1d: 2-29                [8, 32, 32000]            2,592
├─ModuleList: 1-41                       --                        (recursive)
│    └─CausalConv1d: 2-30                [8, 16, 32000]            272
├─ModuleList: 1-40                       --                        (recursive)
│    └─CausalConv1d: 2-31                [8, 32, 32000]            2,592
├─ModuleList: 1-41                       --                        (recursive)
│    └─CausalConv1d: 2-32                [8, 16, 32000]            272
├─ModuleList: 1-40                       --                        (recursive)
│    └─CausalConv1d: 2-33                [8, 32, 32000]            2,592
├─ModuleList: 1-41                       --                        (recursive)
│    └─CausalConv1d: 2-34                [8, 16, 32000]            272
├─ModuleList: 1-40                       --                        (recursive)
│    └─CausalConv1d: 2-35                [8, 32, 32000]            2,592
├─ModuleList: 1-41                       --                        (recursive)
│    └─CausalConv1d: 2-36                [8, 16, 32000]            272
├─ModuleList: 1-40                       --                        (recursive)
│    └─CausalConv1d: 2-37                [8, 32, 32000]            2,592
├─ModuleList: 1-41                       --                        (recursive)
│    └─CausalConv1d: 2-38                [8, 16, 32000]            272
├─ModuleList: 1-40                       --                        (recursive)
│    └─CausalConv1d: 2-39                [8, 32, 32000]            2,592
├─ModuleList: 1-41                       --                        (recursive)
│    └─CausalConv1d: 2-40                [8, 16, 32000]            272
├─Conv1d: 1-42                           [8, 1, 32000]             321
==========================================================================================
Total params: 57,633
Trainable params: 57,633
Non-trainable params: 0
Total mult-adds (G): 14.75
==========================================================================================
Input size (MB): 1.02
Forward/backward pass size (MB): 2000.90
Params size (MB): 0.23
Estimated Total Size (MB): 2002.15
==========================================================================================

Configuration name: BiLSTM-8
Model name: BiLSTM-8_100_8_0.001_20230707-232236

Number of parameters: 729729
==========================================================================================
Layer (type:depth-idx)                   Output Shape              Param #
==========================================================================================
BiLSTM                                   [8, 1, 32000]             --
├─LSTM: 1-1                              [32000, 8, 128]           729,600
├─Linear: 1-2                            [32000, 8, 1]             129
==========================================================================================
Total params: 729,729
Trainable params: 729,729
Non-trainable params: 0
Total mult-adds (G): 186.78
==========================================================================================
Input size (MB): 1.02
Forward/backward pass size (MB): 264.19
Params size (MB): 2.92
Estimated Total Size (MB): 268.14
…
