francescopapaleo@fra-retina:~/git-box/smc-spring-reverb$ python test.py --load tcn_250_report.pth --results_dir results/02/ 
## Loading data...
## Loading model...
----------------------------------------------------------------
        Layer (type)               Output Shape         Param #
================================================================
            Conv1d-1            [-1, 32, 65531]             224
             PReLU-2            [-1, 32, 65531]               1
            Conv1d-3            [-1, 32, 65536]              32
          TCNBlock-4            [-1, 32, 65531]               0
            Conv1d-5            [-1, 32, 65481]           6,176
             PReLU-6            [-1, 32, 65481]               1
            Conv1d-7            [-1, 32, 65531]           1,024
          TCNBlock-8            [-1, 32, 65481]               0
            Conv1d-9            [-1, 32, 64981]           6,176
            PReLU-10            [-1, 32, 64981]               1
           Conv1d-11            [-1, 32, 65481]           1,024
         TCNBlock-12            [-1, 32, 64981]               0
           Conv1d-13            [-1, 32, 59981]           6,176
            PReLU-14            [-1, 32, 59981]               1
           Conv1d-15            [-1, 32, 64981]           1,024
         TCNBlock-16            [-1, 32, 59981]               0
           Conv1d-17              [-1, 1, 9981]             193
            PReLU-18              [-1, 1, 9981]               1
           Conv1d-19             [-1, 1, 59981]              32
         TCNBlock-20              [-1, 1, 9981]               0
================================================================
Total params: 22,086
Trainable params: 22,086
Non-trainable params: 0
----------------------------------------------------------------
Input size (MB): 0.50
Forward/backward pass size (MB): 252.02
Params size (MB): 0.08
Estimated Total Size (MB): 252.60
----------------------------------------------------------------
## Initializing metrics...
…
