…
current_epoch: 5
min_valid_loss: 1.9378505945205688
cond_dim: 2
c0: 0.0
c1: 0.0
input_size: 1
hidden_size: 16
n_layers: 4
output_size: 1
dropout_prob: 0.5
use_skip: True
kernel_size: 3
dataset: springset
sample_rate: 16000
bit_depth: 16
batch_size: 64
num_workers: 8
timestamp: 20240228-124729


Model architecture:
==========================================================================================
Layer (type:depth-idx)                   Output Shape              Param #
==========================================================================================
LSTM                                     [1, 1, 96000]             --
├─Conv1dCausal: 1-1                      [1, 16, 96000]            --
│    └─Conv1d: 2-1                       [1, 16, 96000]            48
├─BatchNorm1d: 1-2                       [1, 16, 96000]            32
├─FiLM: 1-3                              [1, 16, 96000]            --
│    └─Linear: 2-2                       [1, 32]                   96
│    └─BatchNorm1d: 2-3                  [1, 16, 96000]            32
├─LSTM: 1-4                              [1, 96000, 16]            8,704
├─Linear: 1-5                            [1, 96000, 1]             17
├─Linear: 1-6                            [1, 96000, 1]             17
==========================================================================================
Total params: 8,946
Trainable params: 8,946
Non-trainable params: 0
Total mult-adds (Units.MEGABYTES): 840.19
==========================================================================================
Input size (MB): 0.38
Forward/backward pass size (MB): 50.69
Params size (MB): 0.04
Estimated Total Size (MB): 51.11
…
min_valid_loss: 1.7596818378993444
cond_dim: 2
c0: 0.0
c1: 0.0
in_ch: 1
out_ch: 1
n_channels: 32
n_layers: 5
dilation_growth: 14
kernel_size: 3
dataset: springset
sample_rate: 16000
bit_depth: 16
batch_size: 64
num_workers: 8
timestamp: 20240228-144622

Receptive field: 82743 samples or 5171.4 ms

Model architecture:
==========================================================================================
Layer (type:depth-idx)                   Output Shape              Param #
==========================================================================================
TCN                                      [1, 1, 96000]             --
├─ModuleList: 1-1                        --                        --
│    └─TCNBlock: 2-1                     [1, 32, 96000]            --
│    │    └─Conv1dCausal: 3-1            [1, 32, 96000]            128
│    │    └─FiLM: 3-2                    [1, 32, 96000]            256
│    │    └─PReLU: 3-3                   [1, 32, 96000]            1
│    │    └─Conv1d: 3-4                  [1, 32, 96000]            32
│    └─TCNBlock: 2-2                     [1, 32, 96000]            --
│    │    └─Conv1dCausal: 3-5            [1, 32, 96000]            3,104
│    │    └─FiLM: 3-6                    [1, 32, 96000]            256
│    │    └─PReLU: 3-7                   [1, 32, 96000]            1
│    │    └─Conv1d: 3-8                  [1, 32, 96000]            1,024
│    └─TCNBlock: 2-3                     [1, 32, 96000]            --
│    │    └─Conv1dCausal: 3-9            [1, 32, 96000]            3,104
│    │    └─FiLM: 3-10                   [1, 32, 96000]            256
│    │    └─PReLU: 3-11                  [1, 32, 96000]            1
│    │    └─Conv1d: 3-12                 [1, 32, 96000]            1,024
│    └─TCNBlock: 2-4                     [1, 32, 96000]            --
│    │    └─Conv1dCausal: 3-13           [1, 32, 96000]            3,104
│    │    └─FiLM: 3-14                   [1, 32, 96000]            256
│    │    └─PReLU: 3-15                  [1, 32, 96000]            1
│    │    └─Conv1d: 3-16                 [1, 32, 96000]            1,024
│    └─TCNBlock: 2-5                     [1, 32, 96000]            --
│    │    └─Conv1dCausal: 3-17           [1, 32, 96000]            3,104
│    │    └─FiLM: 3-18                   [1, 32, 96000]            256
│    │    └─PReLU: 3-19                  [1, 32, 96000]            1
│    │    └─Conv1d: 3-20                 [1, 32, 96000]            1,024
├─Conv1d: 1-2                            [1, 1, 96000]             32
==========================================================================================
Total params: 17,989
Trainable params: 17,989
Non-trainable params: 0
Total mult-adds (Units.GIGABYTES): 1.60
==========================================================================================
Input size (MB): 0.38
Forward/backward pass size (MB): 492.29
Params size (MB): 0.07
Estimated Total Size (MB): 492.75
…
min_valid_loss: 1.1794837713241577
cond_dim: 2
c0: 0.0
c1: 0.0
in_ch: 1
out_ch: 1
n_channels: 64
n_blocks: 3
dilation_growth: 256
kernel_size: 3
dataset: egfxset
sample_rate: 48000
bit_depth: 24
batch_size: 16
num_workers: 16
params: 61312
timestamp: 20240324-164936

Receptive field: 131587 samples or 2741.4 ms

Model architecture:
==========================================================================================
Layer (type:depth-idx)                   Output Shape              Param #
==========================================================================================
GCN                                      [1, 1, 96000]             --
├─ModuleList: 1-1                        --                        --
│    └─GCNBlock: 2-1                     [1, 64, 96000]            --
│    │    └─Conv1dCausal: 3-1            [1, 128, 96000]           512
│    │    └─FiLM: 3-2                    [1, 128, 96000]           1,024
│    │    └─GatedAF: 3-3                 [1, 64, 96000]            --
│    │    └─Conv1d: 3-4                  [1, 64, 96000]            64
│    └─GCNBlock: 2-2                     [1, 64, 96000]            --
│    │    └─Conv1dCausal: 3-5            [1, 128, 96000]           24,704
│    │    └─FiLM: 3-6                    [1, 128, 96000]           1,024
│    │    └─GatedAF: 3-7                 [1, 64, 96000]            --
│    │    └─Conv1d: 3-8                  [1, 64, 96000]            4,096
│    └─GCNBlock: 2-3                     [1, 64, 96000]            --
│    │    └─Conv1dCausal: 3-9            [1, 128, 96000]           24,704
│    │    └─FiLM: 3-10                   [1, 128, 96000]           1,024
│    │    └─GatedAF: 3-11                [1, 64, 96000]            --
│    │    └─Conv1d: 3-12                 [1, 64, 96000]            4,096
├─Conv1d: 1-2                            [1, 1, 96000]             64
├─TanhAF: 1-3                            [1, 1, 96000]             --
==========================================================================================
Total params: 61,312
Trainable params: 61,312
Non-trainable params: 0
Total mult-adds (Units.GIGABYTES): 5.59
==========================================================================================
Input size (MB): 0.38
Forward/backward pass size (MB): 738.05
Params size (MB): 0.25
Estimated Total Size (MB): 738.68
…
in_ch: 1
out_ch: 1
n_blocks: 2
n_stacks: 5
n_channels: 16
dilation_growth: 10
kernel_size: 3
dataset: egfxset
sample_rate: 48000
bit_depth: 24
batch_size: 16
num_workers: 16
timestamp: 20240229-023001

Receptive field: 44445 samples or 925.9 ms

Model architecture:
====================================================================================================
Layer (type:depth-idx)                             Output Shape              Param #
====================================================================================================
WaveNet                                            [1, 1, 96000]             --
├─ModuleList: 1-1                                  --                        --
│    └─WaveNet1dBlock: 2-1                         [1, 16, 96000]            --
│    │    └─ModuleList: 3-1                        --                        8,720
│    └─WaveNet1dBlock: 2-2                         [1, 16, 96000]            --
│    │    └─ModuleList: 3-2                        --                        10,400
├─Conv1d: 1-2                                      [1, 1, 96000]             16
├─TanhAF: 1-3                                      [1, 1, 96000]             --
====================================================================================================
Total params: 19,136
Trainable params: 19,136
Non-trainable params: 0
Total mult-adds (Units.GIGABYTES): 1.59
====================================================================================================
Input size (MB): 0.38
Forward/backward pass size (MB): 615.17
Params size (MB): 0.08
Estimated Total Size (MB): 615.63
…
current_epoch: 2
min_valid_loss: 2.0183905363082886
cond_dim: 2
c0: 0.0
c1: 0.0
input_size: 1
hidden_size: 16
n_layers: 4
output_size: 1
dropout_prob: 0.5
use_skip: True
kernel_size: 3
dataset: springset
sample_rate: 16000
bit_depth: 16
batch_size: 64
num_workers: 8
timestamp: 20240228-140915


Model architecture:
==========================================================================================
Layer (type:depth-idx)                   Output Shape              Param #
==========================================================================================
GRU                                      [1, 1, 96000]             --
├─Conv1dCausal: 1-1                      [1, 16, 96000]            --
│    └─Conv1d: 2-1                       [1, 16, 96000]            48
├─ReLU: 1-2                              [1, 16, 96000]            --
├─MaxPool1d: 1-3                         [1, 16, 96000]            --
├─GRU: 1-4                               [1, 96000, 16]            6,528
├─FiLM: 1-5                              [1, 16, 96000]            --
│    └─Linear: 2-2                       [1, 32]                   96
│    └─BatchNorm1d: 2-3                  [1, 16, 96000]            32
├─Conv1d: 1-6                            [1, 16, 96000]            16
├─Conv1d: 1-7                            [1, 1, 96000]             16
├─TanhAF: 1-8                            [1, 1, 96000]             --
==========================================================================================
Total params: 6,736
Trainable params: 6,736
Non-trainable params: 0
Total mult-adds (Units.MEGABYTES): 634.37
==========================================================================================
Input size (MB): 0.38
Forward/backward pass size (MB): 49.92
Params size (MB): 0.03
Estimated Total Size (MB): 50.33
…
min_valid_loss: 1.699299420629229
cond_dim: 2
c0: 0.0
c1: 0.0
in_ch: 1
out_ch: 1
n_channels: 64
n_blocks: 4
dilation_growth: 32
kernel_size: 3
dataset: springset
sample_rate: 16000
bit_depth: 16
batch_size: 64
num_workers: 16
timestamp: 20240324-153650

Receptive field: 67651 samples or 4228.2 ms

Model architecture:
==========================================================================================
Layer (type:depth-idx)                   Output Shape              Param #
==========================================================================================
GCN                                      [1, 1, 96000]             --
├─ModuleList: 1-1                        --                        --
│    └─GCNBlock: 2-1                     [1, 64, 96000]            --
│    │    └─Conv1dCausal: 3-1            [1, 128, 96000]           512
│    │    └─FiLM: 3-2                    [1, 128, 96000]           1,024
│    │    └─GatedAF: 3-3                 [1, 64, 96000]            --
│    │    └─Conv1d: 3-4                  [1, 64, 96000]            64
│    └─GCNBlock: 2-2                     [1, 64, 96000]            --
│    │    └─Conv1dCausal: 3-5            [1, 128, 96000]           24,704
│    │    └─FiLM: 3-6                    [1, 128, 96000]           1,024
│    │    └─GatedAF: 3-7                 [1, 64, 96000]            --
│    │    └─Conv1d: 3-8                  [1, 64, 96000]            4,096
│    └─GCNBlock: 2-3                     [1, 64, 96000]            --
│    │    └─Conv1dCausal: 3-9            [1, 128, 96000]           24,704
│    │    └─FiLM: 3-10                   [1, 128, 96000]           1,024
│    │    └─GatedAF: 3-11                [1, 64, 96000]            --
│    │    └─Conv1d: 3-12                 [1, 64, 96000]            4,096
│    └─GCNBlock: 2-4                     [1, 64, 96000]            --
│    │    └─Conv1dCausal: 3-13           [1, 128, 96000]           24,704
│    │    └─FiLM: 3-14                   [1, 128, 96000]           1,024
│    │    └─GatedAF: 3-15                [1, 64, 96000]            --
│    │    └─Conv1d: 3-16                 [1, 64, 96000]            4,096
├─Conv1d: 1-2                            [1, 1, 96000]             64
├─TanhAF: 1-3                            [1, 1, 96000]             --
==========================================================================================
Total params: 91,136
Trainable params: 91,136
Non-trainable params: 0
Total mult-adds (Units.GIGABYTES): 8.36
==========================================================================================
Input size (MB): 0.38
Forward/backward pass size (MB): 983.82
Params size (MB): 0.36
Estimated Total Size (MB): 984.56
…
