…
in_ch: 1
out_ch: 1
n_blocks: 2
n_stacks: 2
n_channels: 16
dilation_growth: 10
kernel_size: 99
dataset: springset
sample_rate: 16000
bit_depth: 16
batch_size: 64
num_workers: 16
timestamp: 20240229-092928

Receptive field: 2157 samples or 134.8 ms

Model architecture:
====================================================================================================
Layer (type:depth-idx)                             Output Shape              Param #
====================================================================================================
WaveNet                                            [1, 1, 96000]             --
├─ModuleList: 1-1                                  --                        --
│    └─WaveNet1dBlock: 2-1                         [1, 16, 96000]            --
│    │    └─ModuleList: 3-1                        --                        54,704
│    └─WaveNet1dBlock: 2-2                         [1, 16, 96000]            --
│    │    └─ModuleList: 3-2                        --                        102,464
├─Conv1d: 1-2                                      [1, 1, 96000]             16
├─TanhAF: 1-3                                      [1, 1, 96000]             --
====================================================================================================
Total params: 157,184
Trainable params: 157,184
Non-trainable params: 0
Total mult-adds (G): 14.99
====================================================================================================
Input size (MB): 0.38
Forward/backward pass size (MB): 246.53
Params size (MB): 0.63
Estimated Total Size (MB): 247.54
…
current_epoch: 5
min_valid_loss: 1.9378505945205688
cond_dim: 2
c0: 0.0
c1: 0.0
input_size: 1
hidden_size: 16
n_layers: 4
output_size: 1
dropout_prob: 0.5
use_skip: True
kernel_size: 3
dataset: springset
sample_rate: 16000
bit_depth: 16
batch_size: 64
num_workers: 8
timestamp: 20240228-124729


Model architecture:
==========================================================================================
Layer (type:depth-idx)                   Output Shape              Param #
==========================================================================================
LSTM                                     [1, 1, 96000]             --
├─Conv1dCausal: 1-1                      [1, 16, 96000]            --
│    └─Conv1d: 2-1                       [1, 16, 96000]            48
├─BatchNorm1d: 1-2                       [1, 16, 96000]            32
├─FiLM: 1-3                              [1, 16, 96000]            --
│    └─Linear: 2-2                       [1, 32]                   96
│    └─BatchNorm1d: 2-3                  [1, 16, 96000]            32
├─LSTM: 1-4                              [1, 96000, 16]            8,704
├─Linear: 1-5                            [1, 96000, 1]             17
├─Linear: 1-6                            [1, 96000, 1]             17
==========================================================================================
Total params: 8,946
Trainable params: 8,946
Non-trainable params: 0
Total mult-adds (M): 840.19
==========================================================================================
Input size (MB): 0.38
Forward/backward pass size (MB): 50.69
Params size (MB): 0.04
Estimated Total Size (MB): 51.11
==========================================================================================
…
current_epoch: 15
min_valid_loss: 2.005439877510071
cond_dim: 2
c0: 0.0
c1: 0.0
input_size: 1
hidden_size: 16
n_layers: 2
output_size: 1
dropout_prob: 0.5
use_skip: True
kernel_size: 99
dataset: springset
sample_rate: 16000
bit_depth: 16
batch_size: 64
num_workers: 16
timestamp: 20240229-070710


Model architecture:
==========================================================================================
Layer (type:depth-idx)                   Output Shape              Param #
==========================================================================================
GRU                                      [1, 1, 96000]             --
├─Conv1dCausal: 1-1                      [1, 16, 96000]            --
│    └─Conv1d: 2-1                       [1, 16, 96000]            1,584
├─ReLU: 1-2                              [1, 16, 96000]            --
├─MaxPool1d: 1-3                         [1, 16, 96000]            --
├─GRU: 1-4                               [1, 96000, 16]            3,264
├─FiLM: 1-5                              [1, 16, 96000]            --
│    └─Linear: 2-2                       [1, 32]                   96
│    └─BatchNorm1d: 2-3                  [1, 16, 96000]            32
├─Conv1d: 1-6                            [1, 16, 96000]            16
├─Conv1d: 1-7                            [1, 1, 96000]             16
├─TanhAF: 1-8                            [1, 1, 96000]             --
==========================================================================================
Total params: 5,008
Trainable params: 5,008
Non-trainable params: 0
Total mult-adds (M): 468.48
==========================================================================================
Input size (MB): 0.38
Forward/backward pass size (MB): 49.92
Params size (MB): 0.02
Estimated Total Size (MB): 50.32
==========================================================================================
…
min_valid_loss: 1.7596818378993444
cond_dim: 2
c0: 0.0
c1: 0.0
in_ch: 1
out_ch: 1
n_channels: 32
n_layers: 5
dilation_growth: 14
kernel_size: 3
dataset: springset
sample_rate: 16000
bit_depth: 16
batch_size: 64
num_workers: 8
timestamp: 20240228-144622

Receptive field: 82743 samples or 5171.4 ms

Model architecture:
==========================================================================================
Layer (type:depth-idx)                   Output Shape              Param #
==========================================================================================
TCN                                      [1, 1, 96000]             --
├─ModuleList: 1-1                        --                        --
│    └─TCNBlock: 2-1                     [1, 32, 96000]            --
│    │    └─Conv1dCausal: 3-1            [1, 32, 96000]            128
│    │    └─FiLM: 3-2                    [1, 32, 96000]            256
│    │    └─PReLU: 3-3                   [1, 32, 96000]            1
│    │    └─Conv1d: 3-4                  [1, 32, 96000]            32
│    └─TCNBlock: 2-2                     [1, 32, 96000]            --
│    │    └─Conv1dCausal: 3-5            [1, 32, 96000]            3,104
│    │    └─FiLM: 3-6                    [1, 32, 96000]            256
│    │    └─PReLU: 3-7                   [1, 32, 96000]            1
│    │    └─Conv1d: 3-8                  [1, 32, 96000]            1,024
│    └─TCNBlock: 2-3                     [1, 32, 96000]            --
│    │    └─Conv1dCausal: 3-9            [1, 32, 96000]            3,104
│    │    └─FiLM: 3-10                   [1, 32, 96000]            256
│    │    └─PReLU: 3-11                  [1, 32, 96000]            1
│    │    └─Conv1d: 3-12                 [1, 32, 96000]            1,024
│    └─TCNBlock: 2-4                     [1, 32, 96000]            --
│    │    └─Conv1dCausal: 3-13           [1, 32, 96000]            3,104
│    │    └─FiLM: 3-14                   [1, 32, 96000]            256
│    │    └─PReLU: 3-15                  [1, 32, 96000]            1
│    │    └─Conv1d: 3-16                 [1, 32, 96000]            1,024
│    └─TCNBlock: 2-5                     [1, 32, 96000]            --
│    │    └─Conv1dCausal: 3-17           [1, 32, 96000]            3,104
│    │    └─FiLM: 3-18                   [1, 32, 96000]            256
│    │    └─PReLU: 3-19                  [1, 32, 96000]            1
│    │    └─Conv1d: 3-20                 [1, 32, 96000]            1,024
├─Conv1d: 1-2                            [1, 1, 96000]             32
==========================================================================================
Total params: 17,989
Trainable params: 17,989
Non-trainable params: 0
Total mult-adds (G): 1.60
==========================================================================================
Input size (MB): 0.38
Forward/backward pass size (MB): 492.29
Params size (MB): 0.07
Estimated Total Size (MB): 492.75
==========================================================================================
…
current_epoch: 196
min_valid_loss: 1.1667513996362686
cond_dim: 2
c0: 0.0
c1: 0.0
input_size: 1
hidden_size: 16
n_layers: 2
output_size: 1
dropout_prob: 0.5
use_skip: True
kernel_size: 99
dataset: egfxset
sample_rate: 48000
bit_depth: 24
batch_size: 16
num_workers: 16
timestamp: 20240229-184415


Model architecture:
==========================================================================================
Layer (type:depth-idx)                   Output Shape              Param #
==========================================================================================
LSTM                                     [1, 1, 96000]             --
├─Conv1dCausal: 1-1                      [1, 16, 96000]            --
│    └─Conv1d: 2-1                       [1, 16, 96000]            1,584
├─BatchNorm1d: 1-2                       [1, 16, 96000]            32
├─FiLM: 1-3                              [1, 16, 96000]            --
│    └─Linear: 2-2                       [1, 32]                   96
│    └─BatchNorm1d: 2-3                  [1, 16, 96000]            32
├─LSTM: 1-4                              [1, 96000, 16]            4,352
├─Linear: 1-5                            [1, 96000, 1]             17
├─Linear: 1-6                            [1, 96000, 1]             17
==========================================================================================
Total params: 6,130
Trainable params: 6,130
Non-trainable params: 0
Total mult-adds (M): 569.86
==========================================================================================
Input size (MB): 0.38
Forward/backward pass size (MB): 50.69
Params size (MB): 0.02
Estimated Total Size (MB): 51.10
==========================================================================================
…
min_valid_loss: 1.2048546927315849
cond_dim: 2
c0: 0.0
c1: 0.0
in_ch: 1
out_ch: 1
n_channels: 32
n_blocks: 2
dilation_growth: 512
kernel_size: 99
dataset: springset
sample_rate: 16000
bit_depth: 16
batch_size: 64
num_workers: 8
timestamp: 20240228-135053

Receptive field: 50275 samples or 3142.2 ms

Model architecture:
==========================================================================================
Layer (type:depth-idx)                   Output Shape              Param #
==========================================================================================
GCN                                      [1, 1, 96000]             --
├─ModuleList: 1-1                        --                        --
│    └─GCNBlock: 2-1                     [1, 32, 96000]            --
│    │    └─Conv1dCausal: 3-1            [1, 64, 96000]            6,400
│    │    └─FiLM: 3-2                    [1, 64, 96000]            512
│    │    └─GatedAF: 3-3                 [1, 32, 96000]            --
│    │    └─Conv1d: 3-4                  [1, 32, 96000]            32
│    └─GCNBlock: 2-2                     [1, 32, 96000]            --
│    │    └─Conv1dCausal: 3-5            [1, 64, 96000]            202,816
│    │    └─FiLM: 3-6                    [1, 64, 96000]            512
│    │    └─GatedAF: 3-7                 [1, 32, 96000]            --
│    │    └─Conv1d: 3-8                  [1, 32, 96000]            1,024
├─Conv1d: 1-2                            [1, 1, 96000]             32
├─TanhAF: 1-3                            [1, 1, 96000]             --
==========================================================================================
Total params: 211,328
Trainable params: 211,328
Non-trainable params: 0
Total mult-adds (G): 20.19
==========================================================================================
Input size (MB): 0.38
Forward/backward pass size (MB): 246.53
Params size (MB): 0.85
Estimated Total Size (MB): 247.76
…
min_valid_loss: 1.0683199018239975
cond_dim: 2
c0: 0.0
c1: 0.0
in_ch: 1
out_ch: 1
n_channels: 32
n_layers: 2
dilation_growth: 14
kernel_size: 99
dataset: egfxset
sample_rate: 48000
bit_depth: 24
batch_size: 16
num_workers: 16
timestamp: 20240229-211520

Receptive field: 1471 samples or 30.6 ms

Model architecture:
==========================================================================================
Layer (type:depth-idx)                   Output Shape              Param #
==========================================================================================
TCN                                      [1, 1, 96000]             --
├─ModuleList: 1-1                        --                        --
│    └─TCNBlock: 2-1                     [1, 32, 96000]            --
│    │    └─Conv1dCausal: 3-1            [1, 32, 96000]            3,200
│    │    └─FiLM: 3-2                    [1, 32, 96000]            256
│    │    └─PReLU: 3-3                   [1, 32, 96000]            1
│    │    └─Conv1d: 3-4                  [1, 32, 96000]            32
│    └─TCNBlock: 2-2                     [1, 32, 96000]            --
│    │    └─Conv1dCausal: 3-5            [1, 32, 96000]            101,408
│    │    └─FiLM: 3-6                    [1, 32, 96000]            256
│    │    └─PReLU: 3-7                   [1, 32, 96000]            1
│    │    └─Conv1d: 3-8                  [1, 32, 96000]            1,024
├─Conv1d: 1-2                            [1, 1, 96000]             32
==========================================================================================
Total params: 106,210
Trainable params: 106,210
Non-trainable params: 0
Total mult-adds (G): 10.15
==========================================================================================
Input size (MB): 0.38
Forward/backward pass size (MB): 197.38
Params size (MB): 0.42
Estimated Total Size (MB): 198.19
…
current_epoch: 2
min_valid_loss: 2.0183905363082886
cond_dim: 2
c0: 0.0
c1: 0.0
input_size: 1
hidden_size: 16
n_layers: 4
output_size: 1
dropout_prob: 0.5
use_skip: True
kernel_size: 3
dataset: springset
sample_rate: 16000
bit_depth: 16
batch_size: 64
num_workers: 8
timestamp: 20240228-140915


Model architecture:
==========================================================================================
Layer (type:depth-idx)                   Output Shape              Param #
==========================================================================================
GRU                                      [1, 1, 96000]             --
├─Conv1dCausal: 1-1                      [1, 16, 96000]            --
│    └─Conv1d: 2-1                       [1, 16, 96000]            48
├─ReLU: 1-2                              [1, 16, 96000]            --
├─MaxPool1d: 1-3                         [1, 16, 96000]            --
├─GRU: 1-4                               [1, 96000, 16]            6,528
├─FiLM: 1-5                              [1, 16, 96000]            --
│    └─Linear: 2-2                       [1, 32]                   96
│    └─BatchNorm1d: 2-3                  [1, 16, 96000]            32
├─Conv1d: 1-6                            [1, 16, 96000]            16
├─Conv1d: 1-7                            [1, 1, 96000]             16
├─TanhAF: 1-8                            [1, 1, 96000]             --
==========================================================================================
Total params: 6,736
Trainable params: 6,736
Non-trainable params: 0
Total mult-adds (M): 634.37
==========================================================================================
Input size (MB): 0.38
Forward/backward pass size (MB): 49.92
Params size (MB): 0.03
Estimated Total Size (MB): 50.33
==========================================================================================
…
min_valid_loss: 1.7689710685185023
cond_dim: 2
c0: 0.0
c1: 0.0
in_ch: 1
out_ch: 1
n_channels: 32
n_blocks: 2
dilation_growth: 512
kernel_size: 3
dataset: springset
sample_rate: 16000
bit_depth: 16
batch_size: 64
num_workers: 16
timestamp: 20240229-065205

Receptive field: 1027 samples or 64.2 ms

Model architecture:
==========================================================================================
Layer (type:depth-idx)                   Output Shape              Param #
==========================================================================================
GCN                                      [1, 1, 96000]             --
├─ModuleList: 1-1                        --                        --
│    └─GCNBlock: 2-1                     [1, 32, 96000]            --
│    │    └─Conv1dCausal: 3-1            [1, 64, 96000]            256
│    │    └─FiLM: 3-2                    [1, 64, 96000]            512
│    │    └─GatedAF: 3-3                 [1, 32, 96000]            --
│    │    └─Conv1d: 3-4                  [1, 32, 96000]            32
│    └─GCNBlock: 2-2                     [1, 32, 96000]            --
│    │    └─Conv1dCausal: 3-5            [1, 64, 96000]            6,208
│    │    └─FiLM: 3-6                    [1, 64, 96000]            512
│    │    └─GatedAF: 3-7                 [1, 32, 96000]            --
│    │    └─Conv1d: 3-8                  [1, 32, 96000]            1,024
├─Conv1d: 1-2                            [1, 1, 96000]             32
├─TanhAF: 1-3                            [1, 1, 96000]             --
==========================================================================================
Total params: 8,576
Trainable params: 8,576
Non-trainable params: 0
Total mult-adds (M): 724.99
==========================================================================================
Input size (MB): 0.38
Forward/backward pass size (MB): 246.53
Params size (MB): 0.03
Estimated Total Size (MB): 246.95
==========================================================================================
…
