…
max_epochs: 1000
early_stop_patience: 100
current_epoch: 248
min_valid_loss: 1.0477716309182785
cond_dim: 3
c0: 0.0
c1: 0.0
c2: 0.0
in_ch: 1
out_ch: 1
n_blocks: 6
n_channels: 32
dilation_growth: 8
kernel_size: 3
timestamp: 20231122-160428

Receptive field: 74899 samples or 1560.4 ms

Model architecture:
==========================================================================================
Layer (type:depth-idx)                   Output Shape              Param #
==========================================================================================
GCN                                      [1, 1, 96000]             --
├─ModuleList: 1-1                        --                        --
│    └─GCNBlock: 2-1                     [1, 32, 96000]            --
│    │    └─Conv1dCausal: 3-1            [1, 64, 96000]            256
│    │    └─FiLM: 3-2                    [1, 64, 96000]            640
│    │    └─GatedAF: 3-3                 [1, 32, 96000]            --
│    │    └─Conv1d: 3-4                  [1, 32, 96000]            32
│    └─GCNBlock: 2-2                     [1, 32, 96000]            --
│    │    └─Conv1dCausal: 3-5            [1, 64, 96000]            6,208
│    │    └─FiLM: 3-6                    [1, 64, 96000]            640
│    │    └─GatedAF: 3-7                 [1, 32, 96000]            --
│    │    └─Conv1d: 3-8                  [1, 32, 96000]            1,024
│    └─GCNBlock: 2-3                     [1, 32, 96000]            --
│    │    └─Conv1dCausal: 3-9            [1, 64, 96000]            6,208
│    │    └─FiLM: 3-10                   [1, 64, 96000]            640
│    │    └─GatedAF: 3-11                [1, 32, 96000]            --
│    │    └─Conv1d: 3-12                 [1, 32, 96000]            1,024
│    └─GCNBlock: 2-4                     [1, 32, 96000]            --
│    │    └─Conv1dCausal: 3-13           [1, 64, 96000]            6,208
│    │    └─FiLM: 3-14                   [1, 64, 96000]            640
│    │    └─GatedAF: 3-15                [1, 32, 96000]            --
│    │    └─Conv1d: 3-16                 [1, 32, 96000]            1,024
│    └─GCNBlock: 2-5                     [1, 32, 96000]            --
│    │    └─Conv1dCausal: 3-17           [1, 64, 96000]            6,208
│    │    └─FiLM: 3-18                   [1, 64, 96000]            640
│    │    └─GatedAF: 3-19                [1, 32, 96000]            --
│    │    └─Conv1d: 3-20                 [1, 32, 96000]            1,024
│    └─GCNBlock: 2-6                     [1, 32, 96000]            --
│    │    └─Conv1dCausal: 3-21           [1, 64, 96000]            6,208
│    │    └─FiLM: 3-22                   [1, 64, 96000]            640
│    │    └─GatedAF: 3-23                [1, 32, 96000]            --
│    │    └─Conv1d: 3-24                 [1, 32, 96000]            1,024
├─Conv1d: 1-2                            [1, 1, 96000]             32
├─TanhAF: 1-3                            [1, 1, 96000]             --
==========================================================================================
Total params: 40,320
Trainable params: 40,320
Non-trainable params: 0
Total mult-adds (G): 3.50
==========================================================================================
Input size (MB): 0.38
Forward/backward pass size (MB): 738.05
Params size (MB): 0.16
Estimated Total Size (MB): 738.60
==========================================================================================
…
num_workers: 4
max_epochs: 1000
early_stop_patience: 100
current_epoch: 204
min_valid_loss: 1.0854611168889439
cond_dim: 3
c0: 0.0
c1: 0.0
c2: 0.0
in_ch: 1
out_ch: 1
n_blocks: 2
n_channels: 32
dilation_growth: 8
kernel_size: 41
timestamp: 20231123-133102

Receptive field: 361 samples or 7.5 ms

Model architecture:
==========================================================================================
Layer (type:depth-idx)                   Output Shape              Param #
==========================================================================================
GCN                                      [1, 1, 96000]             --
├─ModuleList: 1-1                        --                        --
│    └─GCNBlock: 2-1                     [1, 32, 96000]            --
│    │    └─Conv1dCausal: 3-1            [1, 64, 96000]            2,688
│    │    └─FiLM: 3-2                    [1, 64, 96000]            640
│    │    └─GatedAF: 3-3                 [1, 32, 96000]            --
│    │    └─Conv1d: 3-4                  [1, 32, 96000]            32
│    └─GCNBlock: 2-2                     [1, 32, 96000]            --
│    │    └─Conv1dCausal: 3-5            [1, 64, 96000]            84,032
│    │    └─FiLM: 3-6                    [1, 64, 96000]            640
│    │    └─GatedAF: 3-7                 [1, 32, 96000]            --
│    │    └─Conv1d: 3-8                  [1, 32, 96000]            1,024
├─Conv1d: 1-2                            [1, 1, 96000]             32
├─TanhAF: 1-3                            [1, 1, 96000]             --
==========================================================================================
Total params: 89,088
Trainable params: 89,088
Non-trainable params: 0
Total mult-adds (G): 8.43
==========================================================================================
Input size (MB): 0.38
Forward/backward pass size (MB): 246.53
Params size (MB): 0.36
Estimated Total Size (MB): 247.27
==========================================================================================
…
max_epochs: 1000
early_stop_patience: 100
current_epoch: 129
min_valid_loss: 0.9519160705454209
cond_dim: 3
c0: 0.5
c1: 0.5
c2: 0.5
in_ch: 1
out_ch: 1
n_blocks: 2
n_channels: 32
dilation_growth: 512
kernel_size: 99
timestamp: 20231124-075338

Receptive field: 50275 samples or 1047.4 ms

Model architecture:
==========================================================================================
Layer (type:depth-idx)                   Output Shape              Param #
==========================================================================================
GCN                                      [1, 1, 96000]             --
├─ModuleList: 1-1                        --                        --
│    └─GCNBlock: 2-1                     [1, 32, 96000]            --
│    │    └─Conv1dCausal: 3-1            [1, 64, 96000]            6,400
│    │    └─FiLM: 3-2                    [1, 64, 96000]            640
│    │    └─GatedAF: 3-3                 [1, 32, 96000]            --
│    │    └─Conv1d: 3-4                  [1, 32, 96000]            32
│    └─GCNBlock: 2-2                     [1, 32, 96000]            --
│    │    └─Conv1dCausal: 3-5            [1, 64, 96000]            202,816
│    │    └─FiLM: 3-6                    [1, 64, 96000]            640
│    │    └─GatedAF: 3-7                 [1, 32, 96000]            --
│    │    └─Conv1d: 3-8                  [1, 32, 96000]            1,024
├─Conv1d: 1-2                            [1, 1, 96000]             32
├─TanhAF: 1-3                            [1, 1, 96000]             --
==========================================================================================
Total params: 211,584
Trainable params: 211,584
Non-trainable params: 0
Total mult-adds (G): 20.19
==========================================================================================
Input size (MB): 0.38
Forward/backward pass size (MB): 246.53
Params size (MB): 0.85
Estimated Total Size (MB): 247.76
…
max_epochs: 1000
early_stop_patience: 100
current_epoch: 214
min_valid_loss: 1.0177815486403072
cond_dim: 3
c0: 0.0
c1: 0.0
c2: 0.0
in_ch: 1
out_ch: 1
n_blocks: 6
n_channels: 64
dilation_growth: 9
kernel_size: 3
timestamp: 20231122-073904

Receptive field: 132861 samples or 2767.9 ms

Model architecture:
==========================================================================================
Layer (type:depth-idx)                   Output Shape              Param #
==========================================================================================
GCN                                      [1, 1, 96000]             --
├─ModuleList: 1-1                        --                        --
│    └─GCNBlock: 2-1                     [1, 64, 96000]            --
│    │    └─Conv1dCausal: 3-1            [1, 128, 96000]           512
│    │    └─FiLM: 3-2                    [1, 128, 96000]           1,280
│    │    └─GatedAF: 3-3                 [1, 64, 96000]            --
│    │    └─Conv1d: 3-4                  [1, 64, 96000]            64
│    └─GCNBlock: 2-2                     [1, 64, 96000]            --
│    │    └─Conv1dCausal: 3-5            [1, 128, 96000]           24,704
│    │    └─FiLM: 3-6                    [1, 128, 96000]           1,280
│    │    └─GatedAF: 3-7                 [1, 64, 96000]            --
│    │    └─Conv1d: 3-8                  [1, 64, 96000]            4,096
│    └─GCNBlock: 2-3                     [1, 64, 96000]            --
│    │    └─Conv1dCausal: 3-9            [1, 128, 96000]           24,704
│    │    └─FiLM: 3-10                   [1, 128, 96000]           1,280
│    │    └─GatedAF: 3-11                [1, 64, 96000]            --
│    │    └─Conv1d: 3-12                 [1, 64, 96000]            4,096
│    └─GCNBlock: 2-4                     [1, 64, 96000]            --
│    │    └─Conv1dCausal: 3-13           [1, 128, 96000]           24,704
│    │    └─FiLM: 3-14                   [1, 128, 96000]           1,280
│    │    └─GatedAF: 3-15                [1, 64, 96000]            --
│    │    └─Conv1d: 3-16                 [1, 64, 96000]            4,096
│    └─GCNBlock: 2-5                     [1, 64, 96000]            --
│    │    └─Conv1dCausal: 3-17           [1, 128, 96000]           24,704
│    │    └─FiLM: 3-18                   [1, 128, 96000]           1,280
│    │    └─GatedAF: 3-19                [1, 64, 96000]            --
│    │    └─Conv1d: 3-20                 [1, 64, 96000]            4,096
│    └─GCNBlock: 2-6                     [1, 64, 96000]            --
│    │    └─Conv1dCausal: 3-21           [1, 128, 96000]           24,704
│    │    └─FiLM: 3-22                   [1, 128, 96000]           1,280
│    │    └─GatedAF: 3-23                [1, 64, 96000]            --
│    │    └─Conv1d: 3-24                 [1, 64, 96000]            4,096
├─Conv1d: 1-2                            [1, 1, 96000]             64
├─TanhAF: 1-3                            [1, 1, 96000]             --
==========================================================================================
Total params: 152,320
Trainable params: 152,320
Non-trainable params: 0
Total mult-adds (G): 13.89
==========================================================================================
Input size (MB): 0.38
Forward/backward pass size (MB): 1475.34
Params size (MB): 0.61
Estimated Total Size (MB): 1476.33
…
max_epochs: 1000
early_stop_patience: 100
current_epoch: 363
min_valid_loss: 0.7457286435015061
cond_dim: 3
c0: 0.0
c1: 0.0
c2: 0.0
in_ch: 1
out_ch: 1
n_blocks: 6
n_channels: 32
dilation_growth: 5
kernel_size: 41
timestamp: 20231121-144346

Receptive field: 156241 samples or 3255.0 ms

Model architecture:
==========================================================================================
Layer (type:depth-idx)                   Output Shape              Param #
==========================================================================================
GCN                                      [1, 1, 96000]             --
├─ModuleList: 1-1                        --                        --
│    └─GCNBlock: 2-1                     [1, 32, 96000]            --
│    │    └─Conv1dCausal: 3-1            [1, 64, 96000]            2,688
│    │    └─FiLM: 3-2                    [1, 64, 96000]            640
│    │    └─GatedAF: 3-3                 [1, 32, 96000]            --
│    │    └─Conv1d: 3-4                  [1, 32, 96000]            32
│    └─GCNBlock: 2-2                     [1, 32, 96000]            --
│    │    └─Conv1dCausal: 3-5            [1, 64, 96000]            84,032
│    │    └─FiLM: 3-6                    [1, 64, 96000]            640
│    │    └─GatedAF: 3-7                 [1, 32, 96000]            --
│    │    └─Conv1d: 3-8                  [1, 32, 96000]            1,024
│    └─GCNBlock: 2-3                     [1, 32, 96000]            --
│    │    └─Conv1dCausal: 3-9            [1, 64, 96000]            84,032
│    │    └─FiLM: 3-10                   [1, 64, 96000]            640
│    │    └─GatedAF: 3-11                [1, 32, 96000]            --
│    │    └─Conv1d: 3-12                 [1, 32, 96000]            1,024
│    └─GCNBlock: 2-4                     [1, 32, 96000]            --
│    │    └─Conv1dCausal: 3-13           [1, 64, 96000]            84,032
│    │    └─FiLM: 3-14                   [1, 64, 96000]            640
│    │    └─GatedAF: 3-15                [1, 32, 96000]            --
│    │    └─Conv1d: 3-16                 [1, 32, 96000]            1,024
│    └─GCNBlock: 2-5                     [1, 32, 96000]            --
│    │    └─Conv1dCausal: 3-17           [1, 64, 96000]            84,032
│    │    └─FiLM: 3-18                   [1, 64, 96000]            640
│    │    └─GatedAF: 3-19                [1, 32, 96000]            --
│    │    └─Conv1d: 3-20                 [1, 32, 96000]            1,024
│    └─GCNBlock: 2-6                     [1, 32, 96000]            --
│    │    └─Conv1dCausal: 3-21           [1, 64, 96000]            84,032
│    │    └─FiLM: 3-22                   [1, 64, 96000]            640
│    │    └─GatedAF: 3-23                [1, 32, 96000]            --
│    │    └─Conv1d: 3-24                 [1, 32, 96000]            1,024
├─Conv1d: 1-2                            [1, 1, 96000]             32
├─TanhAF: 1-3                            [1, 1, 96000]             --
==========================================================================================
Total params: 431,872
Trainable params: 431,872
Non-trainable params: 0
Total mult-adds (G): 41.09
==========================================================================================
Input size (MB): 0.38
Forward/backward pass size (MB): 738.05
Params size (MB): 1.73
Estimated Total Size (MB): 740.17
…
