…
max_epochs: 1000
early_stop_patience: 100
current_epoch: 28
min_valid_loss: 0.9230783231118146
cond_dim: 3
c0: 0.0
c1: 0.0
c2: 0.0
in_ch: 1
out_ch: 1
n_blocks: 6
n_channels: 32
dilation_growth: 4
kernel_size: 41
timestamp: 20231128-092934

Receptive field: 54601 samples or 1137.5 ms

Model architecture:
==========================================================================================
Layer (type:depth-idx)                   Output Shape              Param #
==========================================================================================
GCN                                      [1, 1, 96000]             --
├─ModuleList: 1-1                        --                        --
│    └─GCNBlock: 2-1                     [1, 32, 96000]            --
│    │    └─Conv1dCausal: 3-1            [1, 64, 96000]            2,688
│    │    └─FiLM: 3-2                    [1, 64, 96000]            640
│    │    └─GatedAF: 3-3                 [1, 32, 96000]            --
│    │    └─Conv1d: 3-4                  [1, 32, 96000]            32
│    └─GCNBlock: 2-2                     [1, 32, 96000]            --
│    │    └─Conv1dCausal: 3-5            [1, 64, 96000]            84,032
│    │    └─FiLM: 3-6                    [1, 64, 96000]            640
│    │    └─GatedAF: 3-7                 [1, 32, 96000]            --
│    │    └─Conv1d: 3-8                  [1, 32, 96000]            1,024
│    └─GCNBlock: 2-3                     [1, 32, 96000]            --
│    │    └─Conv1dCausal: 3-9            [1, 64, 96000]            84,032
│    │    └─FiLM: 3-10                   [1, 64, 96000]            640
│    │    └─GatedAF: 3-11                [1, 32, 96000]            --
│    │    └─Conv1d: 3-12                 [1, 32, 96000]            1,024
│    └─GCNBlock: 2-4                     [1, 32, 96000]            --
│    │    └─Conv1dCausal: 3-13           [1, 64, 96000]            84,032
│    │    └─FiLM: 3-14                   [1, 64, 96000]            640
│    │    └─GatedAF: 3-15                [1, 32, 96000]            --
│    │    └─Conv1d: 3-16                 [1, 32, 96000]            1,024
│    └─GCNBlock: 2-5                     [1, 32, 96000]            --
│    │    └─Conv1dCausal: 3-17           [1, 64, 96000]            84,032
│    │    └─FiLM: 3-18                   [1, 64, 96000]            640
│    │    └─GatedAF: 3-19                [1, 32, 96000]            --
│    │    └─Conv1d: 3-20                 [1, 32, 96000]            1,024
│    └─GCNBlock: 2-6                     [1, 32, 96000]            --
│    │    └─Conv1dCausal: 3-21           [1, 64, 96000]            84,032
│    │    └─FiLM: 3-22                   [1, 64, 96000]            640
│    │    └─GatedAF: 3-23                [1, 32, 96000]            --
│    │    └─Conv1d: 3-24                 [1, 32, 96000]            1,024
├─Conv1d: 1-2                            [1, 1, 96000]             32
├─TanhAF: 1-3                            [1, 1, 96000]             --
==========================================================================================
Total params: 431,872
Trainable params: 431,872
Non-trainable params: 0
Total mult-adds (G): 41.09
==========================================================================================
Input size (MB): 0.38
Forward/backward pass size (MB): 738.05
Params size (MB): 1.73
Estimated Total Size (MB): 740.17
…
early_stop_patience: 100
current_epoch: 312
min_valid_loss: 0.7491509107982411
cond_dim: 3
c0: 0.0
c1: 0.0
c2: 0.0
in_ch: 1
out_ch: 1
n_blocks: 6
n_channels: 32
dilation_growth: 4
kernel_size: 99
tfilm_block_size: 128
rnn_type: gru
timestamp: 20231206-062647

Receptive field: 133771 samples or 2786.9 ms

Model architecture:
==========================================================================================
Layer (type:depth-idx)                   Output Shape              Param #
==========================================================================================
GCN                                      [1, 1, 96000]             --
├─ModuleList: 1-1                        --                        --
│    └─GCNBlock: 2-1                     [1, 32, 96000]            --
│    │    └─Conv1dCausal: 3-1            [1, 64, 96000]            6,400
│    │    └─FiLM: 3-2                    [1, 64, 96000]            640
│    │    └─GatedAF: 3-3                 [1, 32, 96000]            --
│    │    └─Conv1d: 3-4                  [1, 32, 96000]            32
│    └─GCNBlock: 2-2                     [1, 32, 96000]            --
│    │    └─Conv1dCausal: 3-5            [1, 64, 96000]            202,816
│    │    └─FiLM: 3-6                    [1, 64, 96000]            640
│    │    └─GatedAF: 3-7                 [1, 32, 96000]            --
│    │    └─Conv1d: 3-8                  [1, 32, 96000]            1,024
│    └─GCNBlock: 2-3                     [1, 32, 96000]            --
│    │    └─Conv1dCausal: 3-9            [1, 64, 96000]            202,816
│    │    └─FiLM: 3-10                   [1, 64, 96000]            640
│    │    └─GatedAF: 3-11                [1, 32, 96000]            --
│    │    └─Conv1d: 3-12                 [1, 32, 96000]            1,024
│    └─GCNBlock: 2-4                     [1, 32, 96000]            --
│    │    └─Conv1dCausal: 3-13           [1, 64, 96000]            202,816
│    │    └─FiLM: 3-14                   [1, 64, 96000]            640
│    │    └─GatedAF: 3-15                [1, 32, 96000]            --
│    │    └─Conv1d: 3-16                 [1, 32, 96000]            1,024
│    └─GCNBlock: 2-5                     [1, 32, 96000]            --
│    │    └─Conv1dCausal: 3-17           [1, 64, 96000]            202,816
│    │    └─FiLM: 3-18                   [1, 64, 96000]            640
│    │    └─GatedAF: 3-19                [1, 32, 96000]            --
│    │    └─Conv1d: 3-20                 [1, 32, 96000]            1,024
│    └─GCNBlock: 2-6                     [1, 32, 96000]            --
│    │    └─Conv1dCausal: 3-21           [1, 64, 96000]            202,816
│    │    └─FiLM: 3-22                   [1, 64, 96000]            640
│    │    └─GatedAF: 3-23                [1, 32, 96000]            --
│    │    └─Conv1d: 3-24                 [1, 32, 96000]            1,024
├─Conv1d: 1-2                            [1, 1, 96000]             32
├─TanhAF: 1-3                            [1, 1, 96000]             --
==========================================================================================
Total params: 1,029,504
Trainable params: 1,029,504
Non-trainable params: 0
Total mult-adds (G): 98.46
==========================================================================================
Input size (MB): 0.38
Forward/backward pass size (MB): 738.05
Params size (MB): 4.12
Estimated Total Size (MB): 742.56
…
max_epochs: 1000
early_stop_patience: 100
current_epoch: 299
min_valid_loss: 0.7875995110062992
cond_dim: 3
c0: 0.0
c1: 0.0
c2: 0.0
in_ch: 1
out_ch: 1
n_blocks: 4
n_channels: 32
dilation_growth: 16
kernel_size: 33
timestamp: 20231128-162846

Receptive field: 139809 samples or 2912.7 ms

Model architecture:
==========================================================================================
Layer (type:depth-idx)                   Output Shape              Param #
==========================================================================================
GCN                                      [1, 1, 96000]             --
├─ModuleList: 1-1                        --                        --
│    └─GCNBlock: 2-1                     [1, 32, 96000]            --
│    │    └─Conv1dCausal: 3-1            [1, 64, 96000]            2,176
│    │    └─FiLM: 3-2                    [1, 64, 96000]            640
│    │    └─GatedAF: 3-3                 [1, 32, 96000]            --
│    │    └─Conv1d: 3-4                  [1, 32, 96000]            32
│    └─GCNBlock: 2-2                     [1, 32, 96000]            --
│    │    └─Conv1dCausal: 3-5            [1, 64, 96000]            67,648
│    │    └─FiLM: 3-6                    [1, 64, 96000]            640
│    │    └─GatedAF: 3-7                 [1, 32, 96000]            --
│    │    └─Conv1d: 3-8                  [1, 32, 96000]            1,024
│    └─GCNBlock: 2-3                     [1, 32, 96000]            --
│    │    └─Conv1dCausal: 3-9            [1, 64, 96000]            67,648
│    │    └─FiLM: 3-10                   [1, 64, 96000]            640
│    │    └─GatedAF: 3-11                [1, 32, 96000]            --
│    │    └─Conv1d: 3-12                 [1, 32, 96000]            1,024
│    └─GCNBlock: 2-4                     [1, 32, 96000]            --
│    │    └─Conv1dCausal: 3-13           [1, 64, 96000]            67,648
│    │    └─FiLM: 3-14                   [1, 64, 96000]            640
│    │    └─GatedAF: 3-15                [1, 32, 96000]            --
│    │    └─Conv1d: 3-16                 [1, 32, 96000]            1,024
├─Conv1d: 1-2                            [1, 1, 96000]             32
├─TanhAF: 1-3                            [1, 1, 96000]             --
==========================================================================================
Total params: 210,816
Trainable params: 210,816
Non-trainable params: 0
Total mult-adds (G): 19.99
==========================================================================================
Input size (MB): 0.38
Forward/backward pass size (MB): 492.29
Params size (MB): 0.84
Estimated Total Size (MB): 493.52
…
current_epoch: 201
min_valid_loss: 1.0105889194151934
cond_dim: 3
c0: 0.0
c1: 0.0
c2: 0.0
in_ch: 1
out_ch: 1
n_blocks: 2
n_stacks: 5
n_channels: 32
dilation_growth: 10
kernel_size: 3
timestamp: 20231129-005432

Receptive field: 44445 samples or 925.9 ms

Model architecture:
====================================================================================================
Layer (type:depth-idx)                             Output Shape              Param #
====================================================================================================
WaveNet                                            [1, 1, 96000]             --
├─ModuleList: 1-1                                  --                        --
│    └─WaveNet1dBlock: 2-1                         [1, 32, 96000]            --
│    │    └─ModuleList: 3-1                        --                        32,416
│    └─WaveNet1dBlock: 2-2                         [1, 32, 96000]            --
│    │    └─ModuleList: 3-2                        --                        39,360
├─Conv1d: 1-2                                      [1, 1, 96000]             32
├─TanhAF: 1-3                                      [1, 1, 96000]             --
====================================================================================================
Total params: 71,808
Trainable params: 71,808
Non-trainable params: 0
Total mult-adds (G): 6.28
====================================================================================================
Input size (MB): 0.38
Forward/backward pass size (MB): 1229.58
Params size (MB): 0.29
Estimated Total Size (MB): 1230.25
…
lr_patience: 10
batch_size: 4
num_workers: 4
max_epochs: 1000
early_stop_patience: 100
current_epoch: 56
min_valid_loss: inf
cond_dim: 3
c0: 0.0
c1: 0.0
c2: 0.0
input_size: 1
hidden_size: 32
n_layers: 4
output_size: 1
dropout_prob: 0.1
use_skip: True
kernel_size: 3
timestamp: 20231126-073558


Model architecture:
==========================================================================================
Layer (type:depth-idx)                   Output Shape              Param #
==========================================================================================
GRU                                      [1, 1, 96000]             --
├─Conv1dCausal: 1-1                      [1, 32, 96000]            --
│    └─Conv1d: 2-1                       [1, 32, 96000]            96
├─ReLU: 1-2                              [1, 32, 96000]            --
├─MaxPool1d: 1-3                         [1, 32, 96000]            --
├─GRU: 1-4                               [1, 96000, 32]            25,344
├─FiLM: 1-5                              [1, 32, 96000]            --
│    └─Linear: 2-2                       [1, 64]                   256
│    └─BatchNorm1d: 2-3                  [1, 32, 96000]            64
├─Conv1d: 1-6                            [1, 32, 96000]            32
├─Conv1d: 1-7                            [1, 1, 96000]             32
├─TanhAF: 1-8                            [1, 1, 96000]             --
==========================================================================================
Total params: 25,824
Trainable params: 25,824
Non-trainable params: 0
Total mult-adds (G): 2.45
==========================================================================================
Input size (MB): 0.38
Forward/backward pass size (MB): 99.07
Params size (MB): 0.10
Estimated Total Size (MB): 99.56
==========================================================================================
…
early_stop_patience: 100
current_epoch: 94
min_valid_loss: 1.0300588607788086
cond_dim: 3
c0: 0.0
c1: 0.0
c2: 0.0
in_ch: 1
out_ch: 1
n_blocks: 4
n_channels: 32
dilation_growth: 4
kernel_size: 41
tfilm_block_size: 128
rnn_type: gru
timestamp: 20231201-155016

Receptive field: 3401 samples or 70.9 ms

Model architecture:
==========================================================================================
Layer (type:depth-idx)                   Output Shape              Param #
==========================================================================================
GCN                                      [1, 1, 96000]             --
├─ModuleList: 1-1                        --                        --
│    └─GCNBlock: 2-1                     [1, 32, 96000]            --
│    │    └─Conv1dCausal: 3-1            [1, 64, 96000]            2,688
│    │    └─FiLM: 3-2                    [1, 64, 96000]            640
│    │    └─GatedAF: 3-3                 [1, 32, 96000]            --
│    │    └─Conv1d: 3-4                  [1, 32, 96000]            32
│    └─GCNBlock: 2-2                     [1, 32, 96000]            --
│    │    └─Conv1dCausal: 3-5            [1, 64, 96000]            84,032
│    │    └─FiLM: 3-6                    [1, 64, 96000]            640
│    │    └─GatedAF: 3-7                 [1, 32, 96000]            --
│    │    └─Conv1d: 3-8                  [1, 32, 96000]            1,024
│    └─GCNBlock: 2-3                     [1, 32, 96000]            --
│    │    └─Conv1dCausal: 3-9            [1, 64, 96000]            84,032
│    │    └─FiLM: 3-10                   [1, 64, 96000]            640
│    │    └─GatedAF: 3-11                [1, 32, 96000]            --
│    │    └─Conv1d: 3-12                 [1, 32, 96000]            1,024
│    └─GCNBlock: 2-4                     [1, 32, 96000]            --
│    │    └─Conv1dCausal: 3-13           [1, 64, 96000]            84,032
│    │    └─FiLM: 3-14                   [1, 64, 96000]            640
│    │    └─GatedAF: 3-15                [1, 32, 96000]            --
│    │    └─Conv1d: 3-16                 [1, 32, 96000]            1,024
├─Conv1d: 1-2                            [1, 1, 96000]             32
├─TanhAF: 1-3                            [1, 1, 96000]             --
==========================================================================================
Total params: 260,480
Trainable params: 260,480
Non-trainable params: 0
Total mult-adds (G): 24.76
==========================================================================================
Input size (MB): 0.38
Forward/backward pass size (MB): 492.29
Params size (MB): 1.04
Estimated Total Size (MB): 493.72
…
num_workers: 2
max_epochs: 1000
early_stop_patience: 100
current_epoch: 194
min_valid_loss: 1.1697470407555068
cond_dim: 3
c0: 0.0
c1: 0.0
c2: 0.0
input_size: 1
hidden_size: 128
n_layers: 4
output_size: 1
dropout_prob: 0.1
use_skip: True
kernel_size: 3
timestamp: 20231127-110457


Model architecture:
==========================================================================================
Layer (type:depth-idx)                   Output Shape              Param #
==========================================================================================
GRU                                      [1, 1, 96000]             --
├─Conv1dCausal: 1-1                      [1, 128, 96000]           --
│    └─Conv1d: 2-1                       [1, 128, 96000]           384
├─ReLU: 1-2                              [1, 128, 96000]           --
├─MaxPool1d: 1-3                         [1, 128, 96000]           --
├─GRU: 1-4                               [1, 96000, 128]           396,288
├─FiLM: 1-5                              [1, 128, 96000]           --
│    └─Linear: 2-2                       [1, 256]                  1,024
│    └─BatchNorm1d: 2-3                  [1, 128, 96000]           256
├─Conv1d: 1-6                            [1, 128, 96000]           128
├─Conv1d: 1-7                            [1, 1, 96000]             128
├─TanhAF: 1-8                            [1, 1, 96000]             --
==========================================================================================
Total params: 398,208
Trainable params: 398,208
Non-trainable params: 0
Total mult-adds (G): 38.11
==========================================================================================
Input size (MB): 0.38
Forward/backward pass size (MB): 393.99
Params size (MB): 1.59
Estimated Total Size (MB): 395.96
…
max_epochs: 1000
early_stop_patience: 100
current_epoch: 272
min_valid_loss: 1.1551971505669987
cond_dim: 3
c0: 0.0
c1: 0.0
c2: 0.0
n_channels: 16
n_layers: 5
dilation_growth: 14
in_ch: 1
out_ch: 1
kernel_size: 3
timestamp: 20231103-224152

Receptive field: 82743 samples or 1723.8 ms

Model architecture:
==========================================================================================
Layer (type:depth-idx)                   Output Shape              Param #
==========================================================================================
TCN                                      [1, 1, 96000]             --
├─ModuleList: 1-1                        --                        --
│    └─TCNBlock: 2-1                     [1, 16, 96000]            --
│    │    └─Conv1dCausal: 3-1            [1, 16, 96000]            64
│    │    └─FiLM: 3-2                    [1, 16, 96000]            160
│    │    └─PReLU: 3-3                   [1, 16, 96000]            1
│    │    └─Conv1d: 3-4                  [1, 16, 96000]            16
│    └─TCNBlock: 2-2                     [1, 16, 96000]            --
│    │    └─Conv1dCausal: 3-5            [1, 16, 96000]            784
│    │    └─FiLM: 3-6                    [1, 16, 96000]            160
│    │    └─PReLU: 3-7                   [1, 16, 96000]            1
│    │    └─Conv1d: 3-8                  [1, 16, 96000]            256
│    └─TCNBlock: 2-3                     [1, 16, 96000]            --
│    │    └─Conv1dCausal: 3-9            [1, 16, 96000]            784
│    │    └─FiLM: 3-10                   [1, 16, 96000]            160
│    │    └─PReLU: 3-11                  [1, 16, 96000]            1
│    │    └─Conv1d: 3-12                 [1, 16, 96000]            256
│    └─TCNBlock: 2-4                     [1, 16, 96000]            --
│    │    └─Conv1dCausal: 3-13           [1, 16, 96000]            784
│    │    └─FiLM: 3-14                   [1, 16, 96000]            160
│    │    └─PReLU: 3-15                  [1, 16, 96000]            1
│    │    └─Conv1d: 3-16                 [1, 16, 96000]            256
│    └─TCNBlock: 2-5                     [1, 16, 96000]            --
│    │    └─Conv1dCausal: 3-17           [1, 16, 96000]            784
│    │    └─FiLM: 3-18                   [1, 16, 96000]            160
│    │    └─PReLU: 3-19                  [1, 16, 96000]            1
│    │    └─Conv1d: 3-20                 [1, 16, 96000]            256
├─Conv1d: 1-2                            [1, 1, 96000]             16
==========================================================================================
Total params: 5,061
Trainable params: 5,061
Non-trainable params: 0
Total mult-adds (M): 408.58
==========================================================================================
Input size (MB): 0.38
Forward/backward pass size (MB): 246.53
Params size (MB): 0.02
Estimated Total Size (MB): 246.93
==========================================================================================
…
max_epochs: 1000
early_stop_patience: 100
current_epoch: 236
min_valid_loss: 0.7887128766845254
cond_dim: 3
c0: 0.0
c1: 0.0
c2: 0.0
in_ch: 1
out_ch: 1
n_blocks: 4
n_channels: 32
dilation_growth: 16
kernel_size: 99
timestamp: 20231129-075700

Receptive field: 428163 samples or 8920.1 ms

Model architecture:
==========================================================================================
Layer (type:depth-idx)                   Output Shape              Param #
==========================================================================================
GCN                                      [1, 1, 96000]             --
├─ModuleList: 1-1                        --                        --
│    └─GCNBlock: 2-1                     [1, 32, 96000]            --
│    │    └─Conv1dCausal: 3-1            [1, 64, 96000]            6,400
│    │    └─FiLM: 3-2                    [1, 64, 96000]            640
│    │    └─GatedAF: 3-3                 [1, 32, 96000]            --
│    │    └─Conv1d: 3-4                  [1, 32, 96000]            32
│    └─GCNBlock: 2-2                     [1, 32, 96000]            --
│    │    └─Conv1dCausal: 3-5            [1, 64, 96000]            202,816
│    │    └─FiLM: 3-6                    [1, 64, 96000]            640
│    │    └─GatedAF: 3-7                 [1, 32, 96000]            --
│    │    └─Conv1d: 3-8                  [1, 32, 96000]            1,024
│    └─GCNBlock: 2-3                     [1, 32, 96000]            --
│    │    └─Conv1dCausal: 3-9            [1, 64, 96000]            202,816
│    │    └─FiLM: 3-10                   [1, 64, 96000]            640
│    │    └─GatedAF: 3-11                [1, 32, 96000]            --
│    │    └─Conv1d: 3-12                 [1, 32, 96000]            1,024
│    └─GCNBlock: 2-4                     [1, 32, 96000]            --
│    │    └─Conv1dCausal: 3-13           [1, 64, 96000]            202,816
│    │    └─FiLM: 3-14                   [1, 64, 96000]            640
│    │    └─GatedAF: 3-15                [1, 32, 96000]            --
│    │    └─Conv1d: 3-16                 [1, 32, 96000]            1,024
├─Conv1d: 1-2                            [1, 1, 96000]             32
├─TanhAF: 1-3                            [1, 1, 96000]             --
==========================================================================================
Total params: 620,544
Trainable params: 620,544
Non-trainable params: 0
Total mult-adds (G): 59.33
==========================================================================================
Input size (MB): 0.38
Forward/backward pass size (MB): 492.29
Params size (MB): 2.48
Estimated Total Size (MB): 495.16
…
batch_size: 4
num_workers: 4
max_epochs: 1000
early_stop_patience: 70
current_epoch: 43
min_valid_loss: 1.1463749811929815
cond_dim: 3
c0: 0.0
c1: 0.0
c2: 0.0
input_size: 1
hidden_size: 32
n_layers: 4
output_size: 1
dropout_prob: 0.5
use_skip: True
kernel_size: 3
timestamp: 20231104-175644


Model architecture:
==========================================================================================
Layer (type:depth-idx)                   Output Shape              Param #
==========================================================================================
LSTM                                     [1, 1, 96000]             --
├─Conv1dCausal: 1-1                      [1, 32, 96000]            --
│    └─Conv1d: 2-1                       [1, 32, 96000]            96
├─BatchNorm1d: 1-2                       [1, 32, 96000]            64
├─FiLM: 1-3                              [1, 32, 96000]            --
│    └─Linear: 2-2                       [1, 64]                   256
│    └─BatchNorm1d: 2-3                  [1, 32, 96000]            64
├─LSTM: 1-4                              [1, 96000, 32]            33,792
├─Linear: 1-5                            [1, 96000, 1]             33
├─Linear: 1-6                            [1, 96000, 1]             33
==========================================================================================
Total params: 34,338
Trainable params: 34,338
Non-trainable params: 0
Total mult-adds (G): 3.25
==========================================================================================
Input size (MB): 0.38
Forward/backward pass size (MB): 99.84
Params size (MB): 0.14
Estimated Total Size (MB): 100.36
==========================================================================================
