…
current_epoch: 288
min_valid_loss: 1.214716911315918
cond_dim: 3
c0: 0.0
c1: 0.0
c2: 0.0
in_ch: 1
out_ch: 1
n_blocks: 2
n_stacks: 5
n_channels: 32
dilation_growth: 10
kernel_size: 3
timestamp: 20240226-202828

Receptive field: 44445 samples or 2777.8 ms

Model architecture:
====================================================================================================
Layer (type:depth-idx)                             Output Shape              Param #
====================================================================================================
WaveNet                                            [1, 1, 96000]             --
├─ModuleList: 1-1                                  --                        --
│    └─WaveNet1dBlock: 2-1                         [1, 32, 96000]            --
│    │    └─ModuleList: 3-1                        --                        32,416
│    └─WaveNet1dBlock: 2-2                         [1, 32, 96000]            --
│    │    └─ModuleList: 3-2                        --                        39,360
├─Conv1d: 1-2                                      [1, 1, 96000]             32
├─TanhAF: 1-3                                      [1, 1, 96000]             --
====================================================================================================
Total params: 71,808
Trainable params: 71,808
Non-trainable params: 0
Total mult-adds (G): 6.28
====================================================================================================
Input size (MB): 0.38
Forward/backward pass size (MB): 1229.58
Params size (MB): 0.29
Estimated Total Size (MB): 1230.25
…
max_epochs: 1000
early_stop_patience: 100
current_epoch: 677
min_valid_loss: 1.1426821606499808
cond_dim: 3
c0: 0.0
c1: 0.0
c2: 0.0
in_ch: 1
out_ch: 1
n_blocks: 2
n_channels: 32
dilation_growth: 512
kernel_size: 99
timestamp: 20240226-194417

Receptive field: 50275 samples or 3142.2 ms

Model architecture:
==========================================================================================
Layer (type:depth-idx)                   Output Shape              Param #
==========================================================================================
GCN                                      [1, 1, 96000]             --
├─ModuleList: 1-1                        --                        --
│    └─GCNBlock: 2-1                     [1, 32, 96000]            --
│    │    └─Conv1dCausal: 3-1            [1, 64, 96000]            6,400
│    │    └─FiLM: 3-2                    [1, 64, 96000]            640
│    │    └─GatedAF: 3-3                 [1, 32, 96000]            --
│    │    └─Conv1d: 3-4                  [1, 32, 96000]            32
│    └─GCNBlock: 2-2                     [1, 32, 96000]            --
│    │    └─Conv1dCausal: 3-5            [1, 64, 96000]            202,816
│    │    └─FiLM: 3-6                    [1, 64, 96000]            640
│    │    └─GatedAF: 3-7                 [1, 32, 96000]            --
│    │    └─Conv1d: 3-8                  [1, 32, 96000]            1,024
├─Conv1d: 1-2                            [1, 1, 96000]             32
├─TanhAF: 1-3                            [1, 1, 96000]             --
==========================================================================================
Total params: 211,584
Trainable params: 211,584
Non-trainable params: 0
Total mult-adds (G): 20.19
==========================================================================================
Input size (MB): 0.38
Forward/backward pass size (MB): 246.53
Params size (MB): 0.85
Estimated Total Size (MB): 247.76
…
max_epochs: 1000
early_stop_patience: 100
current_epoch: 192
min_valid_loss: 1.7790466717311315
cond_dim: 3
c0: 0.0
c1: 0.0
c2: 0.0
n_channels: 16
n_layers: 5
dilation_growth: 14
in_ch: 1
out_ch: 1
kernel_size: 3
timestamp: 20240226-200410

Receptive field: 82743 samples or 5171.4 ms

Model architecture:
==========================================================================================
Layer (type:depth-idx)                   Output Shape              Param #
==========================================================================================
TCN                                      [1, 1, 96000]             --
├─ModuleList: 1-1                        --                        --
│    └─TCNBlock: 2-1                     [1, 16, 96000]            --
│    │    └─Conv1dCausal: 3-1            [1, 16, 96000]            64
│    │    └─FiLM: 3-2                    [1, 16, 96000]            160
│    │    └─PReLU: 3-3                   [1, 16, 96000]            1
│    │    └─Conv1d: 3-4                  [1, 16, 96000]            16
│    └─TCNBlock: 2-2                     [1, 16, 96000]            --
│    │    └─Conv1dCausal: 3-5            [1, 16, 96000]            784
│    │    └─FiLM: 3-6                    [1, 16, 96000]            160
│    │    └─PReLU: 3-7                   [1, 16, 96000]            1
│    │    └─Conv1d: 3-8                  [1, 16, 96000]            256
│    └─TCNBlock: 2-3                     [1, 16, 96000]            --
│    │    └─Conv1dCausal: 3-9            [1, 16, 96000]            784
│    │    └─FiLM: 3-10                   [1, 16, 96000]            160
│    │    └─PReLU: 3-11                  [1, 16, 96000]            1
│    │    └─Conv1d: 3-12                 [1, 16, 96000]            256
│    └─TCNBlock: 2-4                     [1, 16, 96000]            --
│    │    └─Conv1dCausal: 3-13           [1, 16, 96000]            784
│    │    └─FiLM: 3-14                   [1, 16, 96000]            160
│    │    └─PReLU: 3-15                  [1, 16, 96000]            1
│    │    └─Conv1d: 3-16                 [1, 16, 96000]            256
│    └─TCNBlock: 2-5                     [1, 16, 96000]            --
│    │    └─Conv1dCausal: 3-17           [1, 16, 96000]            784
│    │    └─FiLM: 3-18                   [1, 16, 96000]            160
│    │    └─PReLU: 3-19                  [1, 16, 96000]            1
│    │    └─Conv1d: 3-20                 [1, 16, 96000]            256
├─Conv1d: 1-2                            [1, 1, 96000]             16
==========================================================================================
Total params: 5,061
Trainable params: 5,061
Non-trainable params: 0
Total mult-adds (M): 408.58
==========================================================================================
Input size (MB): 0.38
Forward/backward pass size (MB): 246.53
Params size (MB): 0.02
Estimated Total Size (MB): 246.93
==========================================================================================
…
batch_size: 64
num_workers: 4
max_epochs: 1000
early_stop_patience: 100
current_epoch: 7
min_valid_loss: 1.9077603135790144
cond_dim: 3
c0: 0.0
c1: 0.0
c2: 0.0
input_size: 1
hidden_size: 32
n_layers: 4
output_size: 1
dropout_prob: 0.5
use_skip: True
kernel_size: 3
timestamp: 20240226-195244


Model architecture:
==========================================================================================
Layer (type:depth-idx)                   Output Shape              Param #
==========================================================================================
LSTM                                     [1, 1, 96000]             --
├─Conv1dCausal: 1-1                      [1, 32, 96000]            --
│    └─Conv1d: 2-1                       [1, 32, 96000]            96
├─BatchNorm1d: 1-2                       [1, 32, 96000]            64
├─FiLM: 1-3                              [1, 32, 96000]            --
│    └─Linear: 2-2                       [1, 64]                   256
│    └─BatchNorm1d: 2-3                  [1, 32, 96000]            64
├─LSTM: 1-4                              [1, 96000, 32]            33,792
├─Linear: 1-5                            [1, 96000, 1]             33
├─Linear: 1-6                            [1, 96000, 1]             33
==========================================================================================
Total params: 34,338
Trainable params: 34,338
Non-trainable params: 0
Total mult-adds (G): 3.25
==========================================================================================
Input size (MB): 0.38
Forward/backward pass size (MB): 99.84
Params size (MB): 0.14
Estimated Total Size (MB): 100.36
==========================================================================================
…
