…
==========================================================================================

Processing results/16k/models/tcn-baseline-16.0k.pt...Configuration name: tcn-baseline
Model name: tcn-baseline_20230824-154656
Number of parameters: 31494
criterion: mrstft
batch size: 4
current epoch: 95
Receptive field: 88889 samples or 5555.6 ms
==========================================================================================
Layer (type:depth-idx)                   Output Shape              Param #
==========================================================================================
TCN                                      [4, 1, 32000]             --
├─ModuleList: 1-1                        --                        --
│    └─TCNBlock: 2-1                     [4, 32, 32000]            --
│    │    └─Conv1d: 3-1                  [4, 32, 32000]            320
│    │    └─PReLU: 3-2                   [4, 32, 32000]            1
│    │    └─Conv1d: 3-3                  [4, 32, 32000]            32
│    └─TCNBlock: 2-2                     [4, 32, 32000]            --
│    │    └─Conv1d: 3-4                  [4, 32, 32000]            9,248
│    │    └─PReLU: 3-5                   [4, 32, 32000]            1
│    │    └─Conv1d: 3-6                  [4, 32, 32000]            1,024
│    └─TCNBlock: 2-3                     [4, 32, 32000]            --
│    │    └─Conv1d: 3-7                  [4, 32, 32000]            9,248
│    │    └─PReLU: 3-8                   [4, 32, 32000]            1
│    │    └─Conv1d: 3-9                  [4, 32, 32000]            1,024
│    └─TCNBlock: 2-4                     [4, 32, 32000]            --
│    │    └─Conv1d: 3-10                 [4, 32, 32000]            9,248
│    │    └─PReLU: 3-11                  [4, 32, 32000]            1
│    │    └─Conv1d: 3-12                 [4, 32, 32000]            1,024
│    └─TCNBlock: 2-5                     [4, 1, 32000]             --
│    │    └─Conv1d: 3-13                 [4, 1, 32000]             289
│    │    └─PReLU: 3-14                  [4, 1, 32000]             1
│    │    └─Conv1d: 3-15                 [4, 1, 32000]             32
==========================================================================================
Total params: 31,494
Trainable params: 31,494
Non-trainable params: 0
Total mult-adds (Units.GIGABYTES): 4.03
==========================================================================================
Input size (MB): 0.51
Forward/backward pass size (MB): 396.29
Params size (MB): 0.13
Estimated Total Size (MB): 396.93
==========================================================================================

Processing results/16k/models/lstm-cs-96-16.0k.pt...Configuration name: lstm-cs-96
Model name: lstm-cs-96_20230824-160004
Number of parameters: 75171
criterion: mae+mrstft
batch size: 4
current epoch: 11
==========================================================================================
Layer (type:depth-idx)                   Output Shape              Param #
==========================================================================================
LstmConvSkip                             [4, 1, 32000]             --
├─Conv1d: 1-1                            [4, 96, 32000]            384
├─BatchNorm1d: 1-2                       [4, 96, 32000]            192
├─LSTM: 1-3                              [4, 32000, 96]            74,496
├─Linear: 1-4                            [4, 32000, 1]             97
├─Linear: 1-5                            [4, 32000, 1]             2
==========================================================================================
Total params: 75,171
Trainable params: 75,171
Non-trainable params: 0
Total mult-adds (Units.GIGABYTES): 9.58
==========================================================================================
Input size (MB): 0.51
Forward/backward pass size (MB): 296.96
Params size (MB): 0.30
Estimated Total Size (MB): 297.77
==========================================================================================

Processing results/16k/models/wavenet-18-16.0k.pt...Configuration name: wavenet-18
Model name: wavenet-18_20230824-164635
Number of parameters: 33441
criterion: mae+mrstft
batch size: 4
current epoch: 97
==========================================================================================
Layer (type:depth-idx)                   Output Shape              Param #
==========================================================================================
PedalNetWaveNet                          [4, 1, 32000]             --
├─CausalConv1d: 1-1                      [4, 16, 32000]            32
├─ModuleList: 1-36                       --                        (recursive)
│    └─CausalConv1d: 2-1                 [4, 32, 32000]            1,568
├─ModuleList: 1-37                       --                        (recursive)
│    └─CausalConv1d: 2-2                 [4, 16, 32000]            272
├─ModuleList: 1-36                       --                        (recursive)
│    └─CausalConv1d: 2-3                 [4, 32, 32000]            1,568
├─ModuleList: 1-37                       --                        (recursive)
│    └─CausalConv1d: 2-4                 [4, 16, 32000]            272
├─ModuleList: 1-36                       --                        (recursive)
│    └─CausalConv1d: 2-5                 [4, 32, 32000]            1,568
├─ModuleList: 1-37                       --                        (recursive)
│    └─CausalConv1d: 2-6                 [4, 16, 32000]            272
├─ModuleList: 1-36                       --                        (recursive)
│    └─CausalConv1d: 2-7                 [4, 32, 32000]            1,568
├─ModuleList: 1-37                       --                        (recursive)
│    └─CausalConv1d: 2-8                 [4, 16, 32000]            272
├─ModuleList: 1-36                       --                        (recursive)
│    └─CausalConv1d: 2-9                 [4, 32, 32000]            1,568
├─ModuleList: 1-37                       --                        (recursive)
│    └─CausalConv1d: 2-10                [4, 16, 32000]            272
├─ModuleList: 1-36                       --                        (recursive)
│    └─CausalConv1d: 2-11                [4, 32, 32000]            1,568
├─ModuleList: 1-37                       --                        (recursive)
│    └─CausalConv1d: 2-12                [4, 16, 32000]            272
├─ModuleList: 1-36                       --                        (recursive)
│    └─CausalConv1d: 2-13                [4, 32, 32000]            1,568
├─ModuleList: 1-37                       --                        (recursive)
│    └─CausalConv1d: 2-14                [4, 16, 32000]            272
├─ModuleList: 1-36                       --                        (recursive)
│    └─CausalConv1d: 2-15                [4, 32, 32000]            1,568
├─ModuleList: 1-37                       --                        (recursive)
│    └─CausalConv1d: 2-16                [4, 16, 32000]            272
├─ModuleList: 1-36                       --                        (recursive)
│    └─CausalConv1d: 2-17                [4, 32, 32000]            1,568
├─ModuleList: 1-37                       --                        (recursive)
│    └─CausalConv1d: 2-18                [4, 16, 32000]            272
├─ModuleList: 1-36                       --                        (recursive)
│    └─CausalConv1d: 2-19                [4, 32, 32000]            1,568
├─ModuleList: 1-37                       --                        (recursive)
│    └─CausalConv1d: 2-20                [4, 16, 32000]            272
├─ModuleList: 1-36                       --                        (recursive)
│    └─CausalConv1d: 2-21                [4, 32, 32000]            1,568
├─ModuleList: 1-37                       --                        (recursive)
│    └─CausalConv1d: 2-22                [4, 16, 32000]            272
├─ModuleList: 1-36                       --                        (recursive)
│    └─CausalConv1d: 2-23                [4, 32, 32000]            1,568
├─ModuleList: 1-37                       --                        (recursive)
│    └─CausalConv1d: 2-24                [4, 16, 32000]            272
├─ModuleList: 1-36                       --                        (recursive)
│    └─CausalConv1d: 2-25                [4, 32, 32000]            1,568
├─ModuleList: 1-37                       --                        (recursive)
│    └─CausalConv1d: 2-26                [4, 16, 32000]            272
├─ModuleList: 1-36                       --                        (recursive)
│    └─CausalConv1d: 2-27                [4, 32, 32000]            1,568
├─ModuleList: 1-37                       --                        (recursive)
│    └─CausalConv1d: 2-28                [4, 16, 32000]            272
├─ModuleList: 1-36                       --                        (recursive)
│    └─CausalConv1d: 2-29                [4, 32, 32000]            1,568
├─ModuleList: 1-37                       --                        (recursive)
│    └─CausalConv1d: 2-30                [4, 16, 32000]            272
├─ModuleList: 1-36                       --                        (recursive)
│    └─CausalConv1d: 2-31                [4, 32, 32000]            1,568
├─ModuleList: 1-37                       --                        (recursive)
│    └─CausalConv1d: 2-32                [4, 16, 32000]            272
├─ModuleList: 1-36                       --                        (recursive)
│    └─CausalConv1d: 2-33                [4, 32, 32000]            1,568
├─ModuleList: 1-37                       --                        (recursive)
│    └─CausalConv1d: 2-34                [4, 16, 32000]            272
├─ModuleList: 1-36                       --                        (recursive)
│    └─CausalConv1d: 2-35                [4, 32, 32000]            1,568
├─ModuleList: 1-37                       --                        (recursive)
│    └─CausalConv1d: 2-36                [4, 16, 32000]            272
├─Conv1d: 1-38                           [4, 1, 32000]             289
==========================================================================================
Total params: 33,441
Trainable params: 33,441
Non-trainable params: 0
Total mult-adds (Units.GIGABYTES): 4.28
==========================================================================================
Input size (MB): 0.51
Forward/backward pass size (MB): 902.14
Params size (MB): 0.13
Estimated Total Size (MB): 902.79
==========================================================================================

Processing results/16k/models/gcn-250-16.0k-1.pt...Configuration name: gcn-250
Model name: gcn-250_20230824-180806
Number of parameters: 65569
criterion: mae+mrstft
batch size: 4
current epoch: 98
==========================================================================================
Layer (type:depth-idx)                   Output Shape              Param #
==========================================================================================
GCN                                      [4, 1, 32000]             --
├─ModuleList: 1-1                        --                        --
│    └─GatedConv1d: 2-1                  [4, 16, 32000]            --
│    │    └─Conv1d: 3-1                  [4, 32, 31960]            1,344
│    │    └─Conv1d: 3-2                  [4, 16, 32000]            272
│    └─GatedConv1d: 2-2                  [4, 16, 32000]            --
│    │    └─Conv1d: 3-3                  [4, 32, 31760]            21,024
│    │    └─Conv1d: 3-4                  [4, 16, 32000]            272
│    └─GatedConv1d: 2-3                  [4, 16, 32000]            --
│    │    └─Conv1d: 3-5                  [4, 32, 30560]            21,024
│    │    └─Conv1d: 3-6                  [4, 16, 32000]            272
│    └─GatedConv1d: 2-4                  [4, 16, 32000]            --
│    │    └─Conv1d: 3-7                  [4, 32, 23360]            21,024
│    │    └─Conv1d: 3-8                  [4, 16, 32000]            272
├─Conv1d: 1-2                            [4, 1, 32000]             65
==========================================================================================
Total params: 65,569
Trainable params: 65,569
Non-trainable params: 0
Total mult-adds (Units.GIGABYTES): 7.52
==========================================================================================
Input size (MB): 0.51
Forward/backward pass size (MB): 187.02
Params size (MB): 0.26
Estimated Total Size (MB): 187.80
…
